<?xml version="1.0"?>
<net name="Model3" version="11">
	<layers>
		<layer id="3" name="decoder_input_ids" type="Parameter" version="opset1">
			<data shape="?,?" element_type="i64" />
			<output>
				<port id="0" precision="I64" names="input_ids">
					<dim>-1</dim>
					<dim>-1</dim>
				</port>
			</output>
		</layer>
		<layer id="2" name="Parameter_9570" type="Parameter" version="opset1">
			<data shape="?,?,512" element_type="f32" />
			<output>
				<port id="0" precision="FP32" names="encoder_hidden_states">
					<dim>-1</dim>
					<dim>-1</dim>
					<dim>512</dim>
				</port>
			</output>
		</layer>
		<layer id="1" name="cache_position" type="Parameter" version="opset1">
			<data shape="?" element_type="i64" />
			<output>
				<port id="0" precision="I64" names="cache_position">
					<dim>-1</dim>
				</port>
			</output>
		</layer>
		<layer id="0" name="beam_idx" type="Parameter" version="opset1">
			<data shape="?" element_type="i32" />
			<output>
				<port id="0" precision="I32" names="beam_idx">
					<dim>-1</dim>
				</port>
			</output>
		</layer>
		<layer id="4" name="self.model.model.decoder.layers.1.encoder_attn.k_proj.weight" type="Const" version="opset1">
			<data element_type="u8" shape="512, 512" offset="0" size="262144" />
			<output>
				<port id="0" precision="U8">
					<dim>512</dim>
					<dim>512</dim>
				</port>
			</output>
		</layer>
		<layer id="5" name="Convert_231582" type="Convert" version="opset1">
			<data destination_type="f16" />
			<input>
				<port id="0" precision="U8">
					<dim>512</dim>
					<dim>512</dim>
				</port>
			</input>
			<output>
				<port id="1" precision="FP16">
					<dim>512</dim>
					<dim>512</dim>
				</port>
			</output>
		</layer>
		<layer id="6" name="self.model.model.decoder.layers.1.encoder_attn.k_proj.weight/zero_point" type="Const" version="opset1">
			<data element_type="u8" shape="512, 1" offset="262144" size="512" />
			<output>
				<port id="0" precision="U8">
					<dim>512</dim>
					<dim>1</dim>
				</port>
			</output>
		</layer>
		<layer id="7" name="Convert_231585" type="Convert" version="opset1">
			<data destination_type="f16" />
			<input>
				<port id="0" precision="U8">
					<dim>512</dim>
					<dim>1</dim>
				</port>
			</input>
			<output>
				<port id="1" precision="FP16">
					<dim>512</dim>
					<dim>1</dim>
				</port>
			</output>
		</layer>
		<layer id="8" name="self.model.model.decoder.layers.1.encoder_attn.k_proj.weight/zero_point/subtract" type="Subtract" version="opset1">
			<data auto_broadcast="numpy" />
			<input>
				<port id="0" precision="FP16">
					<dim>512</dim>
					<dim>512</dim>
				</port>
				<port id="1" precision="FP16">
					<dim>512</dim>
					<dim>1</dim>
				</port>
			</input>
			<output>
				<port id="2" precision="FP16">
					<dim>512</dim>
					<dim>512</dim>
				</port>
			</output>
		</layer>
		<layer id="9" name="self.model.model.decoder.layers.1.encoder_attn.k_proj.weight/scale" type="Const" version="opset1">
			<data element_type="f16" shape="512, 1" offset="262656" size="1024" />
			<output>
				<port id="0" precision="FP16">
					<dim>512</dim>
					<dim>1</dim>
				</port>
			</output>
		</layer>
		<layer id="10" name="self.model.model.decoder.layers.1.encoder_attn.k_proj.weight/fq_weights_1" type="Multiply" version="opset1">
			<data auto_broadcast="numpy" />
			<input>
				<port id="0" precision="FP16">
					<dim>512</dim>
					<dim>512</dim>
				</port>
				<port id="1" precision="FP16">
					<dim>512</dim>
					<dim>1</dim>
				</port>
			</input>
			<output>
				<port id="2" precision="FP16">
					<dim>512</dim>
					<dim>512</dim>
				</port>
			</output>
		</layer>
		<layer id="11" name="self.model.model.decoder.layers.1.encoder_attn.k_proj.weight/fq_weights_1/convert" type="Convert" version="opset1">
			<data destination_type="f32" />
			<input>
				<port id="0" precision="FP16">
					<dim>512</dim>
					<dim>512</dim>
				</port>
			</input>
			<output>
				<port id="1" precision="FP32">
					<dim>512</dim>
					<dim>512</dim>
				</port>
			</output>
		</layer>
		<layer id="12" name="__module.model.model.decoder.layers.1.encoder_attn.k_proj/aten::linear/MatMul" type="MatMul" version="opset1">
			<data transpose_a="false" transpose_b="true" />
			<input>
				<port id="0" precision="FP32">
					<dim>-1</dim>
					<dim>-1</dim>
					<dim>512</dim>
				</port>
				<port id="1" precision="FP32">
					<dim>512</dim>
					<dim>512</dim>
				</port>
			</input>
			<output>
				<port id="2" precision="FP32" names="339">
					<dim>-1</dim>
					<dim>-1</dim>
					<dim>512</dim>
				</port>
			</output>
		</layer>
		<layer id="13" name="Constant_19006" type="Const" version="opset1">
			<data element_type="i64" shape="4" offset="263680" size="32" />
			<output>
				<port id="0" precision="I64">
					<dim>4</dim>
				</port>
			</output>
		</layer>
		<layer id="14" name="__module.model.model.decoder.layers.1.encoder_attn/aten::view/Reshape_1" type="Reshape" version="opset1">
			<data special_zero="true" />
			<input>
				<port id="0" precision="FP32">
					<dim>-1</dim>
					<dim>-1</dim>
					<dim>512</dim>
				</port>
				<port id="1" precision="I64">
					<dim>4</dim>
				</port>
			</input>
			<output>
				<port id="2" precision="FP32" names="341,key_states.21">
					<dim>-1</dim>
					<dim>-1</dim>
					<dim>8</dim>
					<dim>64</dim>
				</port>
			</output>
		</layer>
		<layer id="15" name="__module.model.model.decoder.layers.1.encoder_attn/aten::transpose/Constant_1" type="Const" version="opset1">
			<data element_type="i32" shape="4" offset="263712" size="16" />
			<output>
				<port id="0" precision="I32">
					<dim>4</dim>
				</port>
			</output>
		</layer>
		<layer id="16" name="__module.model.model.decoder.layers.1.encoder_attn/aten::transpose/Transpose_1" type="Transpose" version="opset1">
			<input>
				<port id="0" precision="FP32">
					<dim>-1</dim>
					<dim>-1</dim>
					<dim>8</dim>
					<dim>64</dim>
				</port>
				<port id="1" precision="I32">
					<dim>4</dim>
				</port>
			</input>
			<output>
				<port id="2" precision="FP32" names="347">
					<dim>-1</dim>
					<dim>8</dim>
					<dim>-1</dim>
					<dim>64</dim>
				</port>
			</output>
		</layer>
		<layer id="17" name="ReadValue_21781" type="ReadValue" version="opset6">
			<data variable_id="347" variable_type="dynamic" variable_shape="..." />
			<input>
				<port id="0" precision="FP32">
					<dim>-1</dim>
					<dim>8</dim>
					<dim>-1</dim>
					<dim>64</dim>
				</port>
			</input>
			<output>
				<port id="1" precision="FP32">
					<dim>-1</dim>
					<dim>8</dim>
					<dim>-1</dim>
					<dim>64</dim>
				</port>
			</output>
		</layer>
		<layer id="19" name="self.model.model.decoder.layers.1.encoder_attn.v_proj.weight" type="Const" version="opset1">
			<data element_type="u8" shape="512, 512" offset="263728" size="262144" />
			<output>
				<port id="0" precision="U8">
					<dim>512</dim>
					<dim>512</dim>
				</port>
			</output>
		</layer>
		<layer id="20" name="Convert_235515" type="Convert" version="opset1">
			<data destination_type="f16" />
			<input>
				<port id="0" precision="U8">
					<dim>512</dim>
					<dim>512</dim>
				</port>
			</input>
			<output>
				<port id="1" precision="FP16">
					<dim>512</dim>
					<dim>512</dim>
				</port>
			</output>
		</layer>
		<layer id="21" name="self.model.model.decoder.layers.1.encoder_attn.v_proj.weight/zero_point" type="Const" version="opset1">
			<data element_type="u8" shape="512, 1" offset="525872" size="512" />
			<output>
				<port id="0" precision="U8">
					<dim>512</dim>
					<dim>1</dim>
				</port>
			</output>
		</layer>
		<layer id="22" name="Convert_235518" type="Convert" version="opset1">
			<data destination_type="f16" />
			<input>
				<port id="0" precision="U8">
					<dim>512</dim>
					<dim>1</dim>
				</port>
			</input>
			<output>
				<port id="1" precision="FP16">
					<dim>512</dim>
					<dim>1</dim>
				</port>
			</output>
		</layer>
		<layer id="23" name="self.model.model.decoder.layers.1.encoder_attn.v_proj.weight/zero_point/subtract" type="Subtract" version="opset1">
			<data auto_broadcast="numpy" />
			<input>
				<port id="0" precision="FP16">
					<dim>512</dim>
					<dim>512</dim>
				</port>
				<port id="1" precision="FP16">
					<dim>512</dim>
					<dim>1</dim>
				</port>
			</input>
			<output>
				<port id="2" precision="FP16">
					<dim>512</dim>
					<dim>512</dim>
				</port>
			</output>
		</layer>
		<layer id="24" name="self.model.model.decoder.layers.1.encoder_attn.v_proj.weight/scale" type="Const" version="opset1">
			<data element_type="f16" shape="512, 1" offset="526384" size="1024" />
			<output>
				<port id="0" precision="FP16">
					<dim>512</dim>
					<dim>1</dim>
				</port>
			</output>
		</layer>
		<layer id="25" name="self.model.model.decoder.layers.1.encoder_attn.v_proj.weight/fq_weights_1" type="Multiply" version="opset1">
			<data auto_broadcast="numpy" />
			<input>
				<port id="0" precision="FP16">
					<dim>512</dim>
					<dim>512</dim>
				</port>
				<port id="1" precision="FP16">
					<dim>512</dim>
					<dim>1</dim>
				</port>
			</input>
			<output>
				<port id="2" precision="FP16">
					<dim>512</dim>
					<dim>512</dim>
				</port>
			</output>
		</layer>
		<layer id="26" name="self.model.model.decoder.layers.1.encoder_attn.v_proj.weight/fq_weights_1/convert" type="Convert" version="opset1">
			<data destination_type="f32" />
			<input>
				<port id="0" precision="FP16">
					<dim>512</dim>
					<dim>512</dim>
				</port>
			</input>
			<output>
				<port id="1" precision="FP32">
					<dim>512</dim>
					<dim>512</dim>
				</port>
			</output>
		</layer>
		<layer id="27" name="__module.model.model.decoder.layers.1.encoder_attn.v_proj/aten::linear/MatMul" type="MatMul" version="opset1">
			<data transpose_a="false" transpose_b="true" />
			<input>
				<port id="0" precision="FP32">
					<dim>-1</dim>
					<dim>-1</dim>
					<dim>512</dim>
				</port>
				<port id="1" precision="FP32">
					<dim>512</dim>
					<dim>512</dim>
				</port>
			</input>
			<output>
				<port id="2" precision="FP32">
					<dim>-1</dim>
					<dim>-1</dim>
					<dim>512</dim>
				</port>
			</output>
		</layer>
		<layer id="28" name="Constant_17855" type="Const" version="opset1">
			<data element_type="f32" shape="1, 1, 512" offset="527408" size="2048" />
			<output>
				<port id="0" precision="FP32">
					<dim>1</dim>
					<dim>1</dim>
					<dim>512</dim>
				</port>
			</output>
		</layer>
		<layer id="29" name="__module.model.model.decoder.layers.1.encoder_attn.v_proj/aten::linear/Add" type="Add" version="opset1">
			<data auto_broadcast="numpy" />
			<input>
				<port id="0" precision="FP32">
					<dim>-1</dim>
					<dim>-1</dim>
					<dim>512</dim>
				</port>
				<port id="1" precision="FP32">
					<dim>1</dim>
					<dim>1</dim>
					<dim>512</dim>
				</port>
			</input>
			<output>
				<port id="2" precision="FP32" names="344">
					<dim>-1</dim>
					<dim>-1</dim>
					<dim>512</dim>
				</port>
			</output>
		</layer>
		<layer id="30" name="Constant_19007" type="Const" version="opset1">
			<data element_type="i64" shape="4" offset="263680" size="32" />
			<output>
				<port id="0" precision="I64">
					<dim>4</dim>
				</port>
			</output>
		</layer>
		<layer id="31" name="__module.model.model.decoder.layers.1.encoder_attn/aten::view/Reshape_2" type="Reshape" version="opset1">
			<data special_zero="true" />
			<input>
				<port id="0" precision="FP32">
					<dim>-1</dim>
					<dim>-1</dim>
					<dim>512</dim>
				</port>
				<port id="1" precision="I64">
					<dim>4</dim>
				</port>
			</input>
			<output>
				<port id="2" precision="FP32" names="346,value_states.17">
					<dim>-1</dim>
					<dim>-1</dim>
					<dim>8</dim>
					<dim>64</dim>
				</port>
			</output>
		</layer>
		<layer id="32" name="__module.model.model.decoder.layers.1.encoder_attn/aten::transpose/Constant_2" type="Const" version="opset1">
			<data element_type="i32" shape="4" offset="263712" size="16" />
			<output>
				<port id="0" precision="I32">
					<dim>4</dim>
				</port>
			</output>
		</layer>
		<layer id="33" name="__module.model.model.decoder.layers.1.encoder_attn/aten::transpose/Transpose_2" type="Transpose" version="opset1">
			<input>
				<port id="0" precision="FP32">
					<dim>-1</dim>
					<dim>-1</dim>
					<dim>8</dim>
					<dim>64</dim>
				</port>
				<port id="1" precision="I32">
					<dim>4</dim>
				</port>
			</input>
			<output>
				<port id="2" precision="FP32" names="349">
					<dim>-1</dim>
					<dim>8</dim>
					<dim>-1</dim>
					<dim>64</dim>
				</port>
			</output>
		</layer>
		<layer id="34" name="ReadValue_21779" type="ReadValue" version="opset6">
			<data variable_id="349" variable_type="dynamic" variable_shape="..." />
			<input>
				<port id="0" precision="FP32">
					<dim>-1</dim>
					<dim>8</dim>
					<dim>-1</dim>
					<dim>64</dim>
				</port>
			</input>
			<output>
				<port id="1" precision="FP32">
					<dim>-1</dim>
					<dim>8</dim>
					<dim>-1</dim>
					<dim>64</dim>
				</port>
			</output>
		</layer>
		<layer id="36" name="self.model.model.decoder.layers.4.encoder_attn.k_proj.weight" type="Const" version="opset1">
			<data element_type="u8" shape="512, 512" offset="529456" size="262144" />
			<output>
				<port id="0" precision="U8">
					<dim>512</dim>
					<dim>512</dim>
				</port>
			</output>
		</layer>
		<layer id="37" name="Convert_239448" type="Convert" version="opset1">
			<data destination_type="f16" />
			<input>
				<port id="0" precision="U8">
					<dim>512</dim>
					<dim>512</dim>
				</port>
			</input>
			<output>
				<port id="1" precision="FP16">
					<dim>512</dim>
					<dim>512</dim>
				</port>
			</output>
		</layer>
		<layer id="38" name="self.model.model.decoder.layers.4.encoder_attn.k_proj.weight/zero_point" type="Const" version="opset1">
			<data element_type="u8" shape="512, 1" offset="791600" size="512" />
			<output>
				<port id="0" precision="U8">
					<dim>512</dim>
					<dim>1</dim>
				</port>
			</output>
		</layer>
		<layer id="39" name="Convert_239451" type="Convert" version="opset1">
			<data destination_type="f16" />
			<input>
				<port id="0" precision="U8">
					<dim>512</dim>
					<dim>1</dim>
				</port>
			</input>
			<output>
				<port id="1" precision="FP16">
					<dim>512</dim>
					<dim>1</dim>
				</port>
			</output>
		</layer>
		<layer id="40" name="self.model.model.decoder.layers.4.encoder_attn.k_proj.weight/zero_point/subtract" type="Subtract" version="opset1">
			<data auto_broadcast="numpy" />
			<input>
				<port id="0" precision="FP16">
					<dim>512</dim>
					<dim>512</dim>
				</port>
				<port id="1" precision="FP16">
					<dim>512</dim>
					<dim>1</dim>
				</port>
			</input>
			<output>
				<port id="2" precision="FP16">
					<dim>512</dim>
					<dim>512</dim>
				</port>
			</output>
		</layer>
		<layer id="41" name="self.model.model.decoder.layers.4.encoder_attn.k_proj.weight/scale" type="Const" version="opset1">
			<data element_type="f16" shape="512, 1" offset="792112" size="1024" />
			<output>
				<port id="0" precision="FP16">
					<dim>512</dim>
					<dim>1</dim>
				</port>
			</output>
		</layer>
		<layer id="42" name="self.model.model.decoder.layers.4.encoder_attn.k_proj.weight/fq_weights_1" type="Multiply" version="opset1">
			<data auto_broadcast="numpy" />
			<input>
				<port id="0" precision="FP16">
					<dim>512</dim>
					<dim>512</dim>
				</port>
				<port id="1" precision="FP16">
					<dim>512</dim>
					<dim>1</dim>
				</port>
			</input>
			<output>
				<port id="2" precision="FP16">
					<dim>512</dim>
					<dim>512</dim>
				</port>
			</output>
		</layer>
		<layer id="43" name="self.model.model.decoder.layers.4.encoder_attn.k_proj.weight/fq_weights_1/convert" type="Convert" version="opset1">
			<data destination_type="f32" />
			<input>
				<port id="0" precision="FP16">
					<dim>512</dim>
					<dim>512</dim>
				</port>
			</input>
			<output>
				<port id="1" precision="FP32">
					<dim>512</dim>
					<dim>512</dim>
				</port>
			</output>
		</layer>
		<layer id="44" name="__module.model.model.decoder.layers.4.encoder_attn.k_proj/aten::linear/MatMul" type="MatMul" version="opset1">
			<data transpose_a="false" transpose_b="true" />
			<input>
				<port id="0" precision="FP32">
					<dim>-1</dim>
					<dim>-1</dim>
					<dim>512</dim>
				</port>
				<port id="1" precision="FP32">
					<dim>512</dim>
					<dim>512</dim>
				</port>
			</input>
			<output>
				<port id="2" precision="FP32" names="687">
					<dim>-1</dim>
					<dim>-1</dim>
					<dim>512</dim>
				</port>
			</output>
		</layer>
		<layer id="45" name="Constant_19030" type="Const" version="opset1">
			<data element_type="i64" shape="4" offset="263680" size="32" />
			<output>
				<port id="0" precision="I64">
					<dim>4</dim>
				</port>
			</output>
		</layer>
		<layer id="46" name="__module.model.model.decoder.layers.4.encoder_attn/aten::view/Reshape_1" type="Reshape" version="opset1">
			<data special_zero="true" />
			<input>
				<port id="0" precision="FP32">
					<dim>-1</dim>
					<dim>-1</dim>
					<dim>512</dim>
				</port>
				<port id="1" precision="I64">
					<dim>4</dim>
				</port>
			</input>
			<output>
				<port id="2" precision="FP32" names="689,key_states.51">
					<dim>-1</dim>
					<dim>-1</dim>
					<dim>8</dim>
					<dim>64</dim>
				</port>
			</output>
		</layer>
		<layer id="47" name="__module.model.model.decoder.layers.4.encoder_attn/aten::transpose/Constant_1" type="Const" version="opset1">
			<data element_type="i32" shape="4" offset="263712" size="16" />
			<output>
				<port id="0" precision="I32">
					<dim>4</dim>
				</port>
			</output>
		</layer>
		<layer id="48" name="__module.model.model.decoder.layers.4.encoder_attn/aten::transpose/Transpose_1" type="Transpose" version="opset1">
			<input>
				<port id="0" precision="FP32">
					<dim>-1</dim>
					<dim>-1</dim>
					<dim>8</dim>
					<dim>64</dim>
				</port>
				<port id="1" precision="I32">
					<dim>4</dim>
				</port>
			</input>
			<output>
				<port id="2" precision="FP32" names="695">
					<dim>-1</dim>
					<dim>8</dim>
					<dim>-1</dim>
					<dim>64</dim>
				</port>
			</output>
		</layer>
		<layer id="49" name="ReadValue_21777" type="ReadValue" version="opset6">
			<data variable_id="695" variable_type="dynamic" variable_shape="..." />
			<input>
				<port id="0" precision="FP32">
					<dim>-1</dim>
					<dim>8</dim>
					<dim>-1</dim>
					<dim>64</dim>
				</port>
			</input>
			<output>
				<port id="1" precision="FP32">
					<dim>-1</dim>
					<dim>8</dim>
					<dim>-1</dim>
					<dim>64</dim>
				</port>
			</output>
		</layer>
		<layer id="51" name="self.model.model.decoder.layers.5.encoder_attn.v_proj.weight" type="Const" version="opset1">
			<data element_type="u8" shape="512, 512" offset="793136" size="262144" />
			<output>
				<port id="0" precision="U8">
					<dim>512</dim>
					<dim>512</dim>
				</port>
			</output>
		</layer>
		<layer id="52" name="Convert_243381" type="Convert" version="opset1">
			<data destination_type="f16" />
			<input>
				<port id="0" precision="U8">
					<dim>512</dim>
					<dim>512</dim>
				</port>
			</input>
			<output>
				<port id="1" precision="FP16">
					<dim>512</dim>
					<dim>512</dim>
				</port>
			</output>
		</layer>
		<layer id="53" name="self.model.model.decoder.layers.5.encoder_attn.v_proj.weight/zero_point" type="Const" version="opset1">
			<data element_type="u8" shape="512, 1" offset="1055280" size="512" />
			<output>
				<port id="0" precision="U8">
					<dim>512</dim>
					<dim>1</dim>
				</port>
			</output>
		</layer>
		<layer id="54" name="Convert_243384" type="Convert" version="opset1">
			<data destination_type="f16" />
			<input>
				<port id="0" precision="U8">
					<dim>512</dim>
					<dim>1</dim>
				</port>
			</input>
			<output>
				<port id="1" precision="FP16">
					<dim>512</dim>
					<dim>1</dim>
				</port>
			</output>
		</layer>
		<layer id="55" name="self.model.model.decoder.layers.5.encoder_attn.v_proj.weight/zero_point/subtract" type="Subtract" version="opset1">
			<data auto_broadcast="numpy" />
			<input>
				<port id="0" precision="FP16">
					<dim>512</dim>
					<dim>512</dim>
				</port>
				<port id="1" precision="FP16">
					<dim>512</dim>
					<dim>1</dim>
				</port>
			</input>
			<output>
				<port id="2" precision="FP16">
					<dim>512</dim>
					<dim>512</dim>
				</port>
			</output>
		</layer>
		<layer id="56" name="self.model.model.decoder.layers.5.encoder_attn.v_proj.weight/scale" type="Const" version="opset1">
			<data element_type="f16" shape="512, 1" offset="1055792" size="1024" />
			<output>
				<port id="0" precision="FP16">
					<dim>512</dim>
					<dim>1</dim>
				</port>
			</output>
		</layer>
		<layer id="57" name="self.model.model.decoder.layers.5.encoder_attn.v_proj.weight/fq_weights_1" type="Multiply" version="opset1">
			<data auto_broadcast="numpy" />
			<input>
				<port id="0" precision="FP16">
					<dim>512</dim>
					<dim>512</dim>
				</port>
				<port id="1" precision="FP16">
					<dim>512</dim>
					<dim>1</dim>
				</port>
			</input>
			<output>
				<port id="2" precision="FP16">
					<dim>512</dim>
					<dim>512</dim>
				</port>
			</output>
		</layer>
		<layer id="58" name="self.model.model.decoder.layers.5.encoder_attn.v_proj.weight/fq_weights_1/convert" type="Convert" version="opset1">
			<data destination_type="f32" />
			<input>
				<port id="0" precision="FP16">
					<dim>512</dim>
					<dim>512</dim>
				</port>
			</input>
			<output>
				<port id="1" precision="FP32">
					<dim>512</dim>
					<dim>512</dim>
				</port>
			</output>
		</layer>
		<layer id="59" name="__module.model.model.decoder.layers.5.encoder_attn.v_proj/aten::linear/MatMul" type="MatMul" version="opset1">
			<data transpose_a="false" transpose_b="true" />
			<input>
				<port id="0" precision="FP32">
					<dim>-1</dim>
					<dim>-1</dim>
					<dim>512</dim>
				</port>
				<port id="1" precision="FP32">
					<dim>512</dim>
					<dim>512</dim>
				</port>
			</input>
			<output>
				<port id="2" precision="FP32">
					<dim>-1</dim>
					<dim>-1</dim>
					<dim>512</dim>
				</port>
			</output>
		</layer>
		<layer id="60" name="Constant_17911" type="Const" version="opset1">
			<data element_type="f32" shape="1, 1, 512" offset="1056816" size="2048" />
			<output>
				<port id="0" precision="FP32">
					<dim>1</dim>
					<dim>1</dim>
					<dim>512</dim>
				</port>
			</output>
		</layer>
		<layer id="61" name="__module.model.model.decoder.layers.5.encoder_attn.v_proj/aten::linear/Add" type="Add" version="opset1">
			<data auto_broadcast="numpy" />
			<input>
				<port id="0" precision="FP32">
					<dim>-1</dim>
					<dim>-1</dim>
					<dim>512</dim>
				</port>
				<port id="1" precision="FP32">
					<dim>1</dim>
					<dim>1</dim>
					<dim>512</dim>
				</port>
			</input>
			<output>
				<port id="2" precision="FP32" names="808">
					<dim>-1</dim>
					<dim>-1</dim>
					<dim>512</dim>
				</port>
			</output>
		</layer>
		<layer id="62" name="Constant_19039" type="Const" version="opset1">
			<data element_type="i64" shape="4" offset="263680" size="32" />
			<output>
				<port id="0" precision="I64">
					<dim>4</dim>
				</port>
			</output>
		</layer>
		<layer id="63" name="__module.model.model.decoder.layers.5.encoder_attn/aten::view/Reshape_2" type="Reshape" version="opset1">
			<data special_zero="true" />
			<input>
				<port id="0" precision="FP32">
					<dim>-1</dim>
					<dim>-1</dim>
					<dim>512</dim>
				</port>
				<port id="1" precision="I64">
					<dim>4</dim>
				</port>
			</input>
			<output>
				<port id="2" precision="FP32" names="810,value_states.57">
					<dim>-1</dim>
					<dim>-1</dim>
					<dim>8</dim>
					<dim>64</dim>
				</port>
			</output>
		</layer>
		<layer id="64" name="__module.model.model.decoder.layers.5.encoder_attn/aten::transpose/Constant_2" type="Const" version="opset1">
			<data element_type="i32" shape="4" offset="263712" size="16" />
			<output>
				<port id="0" precision="I32">
					<dim>4</dim>
				</port>
			</output>
		</layer>
		<layer id="65" name="__module.model.model.decoder.layers.5.encoder_attn/aten::transpose/Transpose_2" type="Transpose" version="opset1">
			<input>
				<port id="0" precision="FP32">
					<dim>-1</dim>
					<dim>-1</dim>
					<dim>8</dim>
					<dim>64</dim>
				</port>
				<port id="1" precision="I32">
					<dim>4</dim>
				</port>
			</input>
			<output>
				<port id="2" precision="FP32" names="813">
					<dim>-1</dim>
					<dim>8</dim>
					<dim>-1</dim>
					<dim>64</dim>
				</port>
			</output>
		</layer>
		<layer id="66" name="ReadValue_21775" type="ReadValue" version="opset6">
			<data variable_id="813" variable_type="dynamic" variable_shape="..." />
			<input>
				<port id="0" precision="FP32">
					<dim>-1</dim>
					<dim>8</dim>
					<dim>-1</dim>
					<dim>64</dim>
				</port>
			</input>
			<output>
				<port id="1" precision="FP32">
					<dim>-1</dim>
					<dim>8</dim>
					<dim>-1</dim>
					<dim>64</dim>
				</port>
			</output>
		</layer>
		<layer id="68" name="self.model.model.decoder.layers.0.encoder_attn.k_proj.weight" type="Const" version="opset1">
			<data element_type="u8" shape="512, 512" offset="1058864" size="262144" />
			<output>
				<port id="0" precision="U8">
					<dim>512</dim>
					<dim>512</dim>
				</port>
			</output>
		</layer>
		<layer id="69" name="Convert_247314" type="Convert" version="opset1">
			<data destination_type="f16" />
			<input>
				<port id="0" precision="U8">
					<dim>512</dim>
					<dim>512</dim>
				</port>
			</input>
			<output>
				<port id="1" precision="FP16">
					<dim>512</dim>
					<dim>512</dim>
				</port>
			</output>
		</layer>
		<layer id="70" name="self.model.model.decoder.layers.0.encoder_attn.k_proj.weight/zero_point" type="Const" version="opset1">
			<data element_type="u8" shape="512, 1" offset="1321008" size="512" />
			<output>
				<port id="0" precision="U8">
					<dim>512</dim>
					<dim>1</dim>
				</port>
			</output>
		</layer>
		<layer id="71" name="Convert_247317" type="Convert" version="opset1">
			<data destination_type="f16" />
			<input>
				<port id="0" precision="U8">
					<dim>512</dim>
					<dim>1</dim>
				</port>
			</input>
			<output>
				<port id="1" precision="FP16">
					<dim>512</dim>
					<dim>1</dim>
				</port>
			</output>
		</layer>
		<layer id="72" name="self.model.model.decoder.layers.0.encoder_attn.k_proj.weight/zero_point/subtract" type="Subtract" version="opset1">
			<data auto_broadcast="numpy" />
			<input>
				<port id="0" precision="FP16">
					<dim>512</dim>
					<dim>512</dim>
				</port>
				<port id="1" precision="FP16">
					<dim>512</dim>
					<dim>1</dim>
				</port>
			</input>
			<output>
				<port id="2" precision="FP16">
					<dim>512</dim>
					<dim>512</dim>
				</port>
			</output>
		</layer>
		<layer id="73" name="self.model.model.decoder.layers.0.encoder_attn.k_proj.weight/scale" type="Const" version="opset1">
			<data element_type="f16" shape="512, 1" offset="1321520" size="1024" />
			<output>
				<port id="0" precision="FP16">
					<dim>512</dim>
					<dim>1</dim>
				</port>
			</output>
		</layer>
		<layer id="74" name="self.model.model.decoder.layers.0.encoder_attn.k_proj.weight/fq_weights_1" type="Multiply" version="opset1">
			<data auto_broadcast="numpy" />
			<input>
				<port id="0" precision="FP16">
					<dim>512</dim>
					<dim>512</dim>
				</port>
				<port id="1" precision="FP16">
					<dim>512</dim>
					<dim>1</dim>
				</port>
			</input>
			<output>
				<port id="2" precision="FP16">
					<dim>512</dim>
					<dim>512</dim>
				</port>
			</output>
		</layer>
		<layer id="75" name="self.model.model.decoder.layers.0.encoder_attn.k_proj.weight/fq_weights_1/convert" type="Convert" version="opset1">
			<data destination_type="f32" />
			<input>
				<port id="0" precision="FP16">
					<dim>512</dim>
					<dim>512</dim>
				</port>
			</input>
			<output>
				<port id="1" precision="FP32">
					<dim>512</dim>
					<dim>512</dim>
				</port>
			</output>
		</layer>
		<layer id="76" name="__module.model.model.decoder.layers.0.encoder_attn.k_proj/aten::linear/MatMul" type="MatMul" version="opset1">
			<data transpose_a="false" transpose_b="true" />
			<input>
				<port id="0" precision="FP32">
					<dim>-1</dim>
					<dim>-1</dim>
					<dim>512</dim>
				</port>
				<port id="1" precision="FP32">
					<dim>512</dim>
					<dim>512</dim>
				</port>
			</input>
			<output>
				<port id="2" precision="FP32" names="223">
					<dim>-1</dim>
					<dim>-1</dim>
					<dim>512</dim>
				</port>
			</output>
		</layer>
		<layer id="77" name="Constant_18998" type="Const" version="opset1">
			<data element_type="i64" shape="4" offset="263680" size="32" />
			<output>
				<port id="0" precision="I64">
					<dim>4</dim>
				</port>
			</output>
		</layer>
		<layer id="78" name="__module.model.model.decoder.layers.0.encoder_attn/aten::view/Reshape_1" type="Reshape" version="opset1">
			<data special_zero="true" />
			<input>
				<port id="0" precision="FP32">
					<dim>-1</dim>
					<dim>-1</dim>
					<dim>512</dim>
				</port>
				<port id="1" precision="I64">
					<dim>4</dim>
				</port>
			</input>
			<output>
				<port id="2" precision="FP32" names="225,key_states.11">
					<dim>-1</dim>
					<dim>-1</dim>
					<dim>8</dim>
					<dim>64</dim>
				</port>
			</output>
		</layer>
		<layer id="79" name="__module.model.model.decoder.layers.0.encoder_attn/aten::transpose/Constant_1" type="Const" version="opset1">
			<data element_type="i32" shape="4" offset="263712" size="16" />
			<output>
				<port id="0" precision="I32">
					<dim>4</dim>
				</port>
			</output>
		</layer>
		<layer id="80" name="__module.model.model.decoder.layers.0.encoder_attn/aten::transpose/Transpose_1" type="Transpose" version="opset1">
			<input>
				<port id="0" precision="FP32">
					<dim>-1</dim>
					<dim>-1</dim>
					<dim>8</dim>
					<dim>64</dim>
				</port>
				<port id="1" precision="I32">
					<dim>4</dim>
				</port>
			</input>
			<output>
				<port id="2" precision="FP32" names="231">
					<dim>-1</dim>
					<dim>8</dim>
					<dim>-1</dim>
					<dim>64</dim>
				</port>
			</output>
		</layer>
		<layer id="81" name="ReadValue_21773" type="ReadValue" version="opset6">
			<data variable_id="231" variable_type="dynamic" variable_shape="..." />
			<input>
				<port id="0" precision="FP32">
					<dim>-1</dim>
					<dim>8</dim>
					<dim>-1</dim>
					<dim>64</dim>
				</port>
			</input>
			<output>
				<port id="1" precision="FP32">
					<dim>-1</dim>
					<dim>8</dim>
					<dim>-1</dim>
					<dim>64</dim>
				</port>
			</output>
		</layer>
		<layer id="83" name="self.model.model.decoder.layers.3.encoder_attn.k_proj.weight" type="Const" version="opset1">
			<data element_type="u8" shape="512, 512" offset="1322544" size="262144" />
			<output>
				<port id="0" precision="U8">
					<dim>512</dim>
					<dim>512</dim>
				</port>
			</output>
		</layer>
		<layer id="84" name="Convert_251247" type="Convert" version="opset1">
			<data destination_type="f16" />
			<input>
				<port id="0" precision="U8">
					<dim>512</dim>
					<dim>512</dim>
				</port>
			</input>
			<output>
				<port id="1" precision="FP16">
					<dim>512</dim>
					<dim>512</dim>
				</port>
			</output>
		</layer>
		<layer id="85" name="self.model.model.decoder.layers.3.encoder_attn.k_proj.weight/zero_point" type="Const" version="opset1">
			<data element_type="u8" shape="512, 1" offset="1584688" size="512" />
			<output>
				<port id="0" precision="U8">
					<dim>512</dim>
					<dim>1</dim>
				</port>
			</output>
		</layer>
		<layer id="86" name="Convert_251250" type="Convert" version="opset1">
			<data destination_type="f16" />
			<input>
				<port id="0" precision="U8">
					<dim>512</dim>
					<dim>1</dim>
				</port>
			</input>
			<output>
				<port id="1" precision="FP16">
					<dim>512</dim>
					<dim>1</dim>
				</port>
			</output>
		</layer>
		<layer id="87" name="self.model.model.decoder.layers.3.encoder_attn.k_proj.weight/zero_point/subtract" type="Subtract" version="opset1">
			<data auto_broadcast="numpy" />
			<input>
				<port id="0" precision="FP16">
					<dim>512</dim>
					<dim>512</dim>
				</port>
				<port id="1" precision="FP16">
					<dim>512</dim>
					<dim>1</dim>
				</port>
			</input>
			<output>
				<port id="2" precision="FP16">
					<dim>512</dim>
					<dim>512</dim>
				</port>
			</output>
		</layer>
		<layer id="88" name="self.model.model.decoder.layers.3.encoder_attn.k_proj.weight/scale" type="Const" version="opset1">
			<data element_type="f16" shape="512, 1" offset="1585200" size="1024" />
			<output>
				<port id="0" precision="FP16">
					<dim>512</dim>
					<dim>1</dim>
				</port>
			</output>
		</layer>
		<layer id="89" name="self.model.model.decoder.layers.3.encoder_attn.k_proj.weight/fq_weights_1" type="Multiply" version="opset1">
			<data auto_broadcast="numpy" />
			<input>
				<port id="0" precision="FP16">
					<dim>512</dim>
					<dim>512</dim>
				</port>
				<port id="1" precision="FP16">
					<dim>512</dim>
					<dim>1</dim>
				</port>
			</input>
			<output>
				<port id="2" precision="FP16">
					<dim>512</dim>
					<dim>512</dim>
				</port>
			</output>
		</layer>
		<layer id="90" name="self.model.model.decoder.layers.3.encoder_attn.k_proj.weight/fq_weights_1/convert" type="Convert" version="opset1">
			<data destination_type="f32" />
			<input>
				<port id="0" precision="FP16">
					<dim>512</dim>
					<dim>512</dim>
				</port>
			</input>
			<output>
				<port id="1" precision="FP32">
					<dim>512</dim>
					<dim>512</dim>
				</port>
			</output>
		</layer>
		<layer id="91" name="__module.model.model.decoder.layers.3.encoder_attn.k_proj/aten::linear/MatMul" type="MatMul" version="opset1">
			<data transpose_a="false" transpose_b="true" />
			<input>
				<port id="0" precision="FP32">
					<dim>-1</dim>
					<dim>-1</dim>
					<dim>512</dim>
				</port>
				<port id="1" precision="FP32">
					<dim>512</dim>
					<dim>512</dim>
				</port>
			</input>
			<output>
				<port id="2" precision="FP32" names="571">
					<dim>-1</dim>
					<dim>-1</dim>
					<dim>512</dim>
				</port>
			</output>
		</layer>
		<layer id="92" name="Constant_19022" type="Const" version="opset1">
			<data element_type="i64" shape="4" offset="263680" size="32" />
			<output>
				<port id="0" precision="I64">
					<dim>4</dim>
				</port>
			</output>
		</layer>
		<layer id="93" name="__module.model.model.decoder.layers.3.encoder_attn/aten::view/Reshape_1" type="Reshape" version="opset1">
			<data special_zero="true" />
			<input>
				<port id="0" precision="FP32">
					<dim>-1</dim>
					<dim>-1</dim>
					<dim>512</dim>
				</port>
				<port id="1" precision="I64">
					<dim>4</dim>
				</port>
			</input>
			<output>
				<port id="2" precision="FP32" names="573,key_states.41">
					<dim>-1</dim>
					<dim>-1</dim>
					<dim>8</dim>
					<dim>64</dim>
				</port>
			</output>
		</layer>
		<layer id="94" name="__module.model.model.decoder.layers.3.encoder_attn/aten::transpose/Constant_1" type="Const" version="opset1">
			<data element_type="i32" shape="4" offset="263712" size="16" />
			<output>
				<port id="0" precision="I32">
					<dim>4</dim>
				</port>
			</output>
		</layer>
		<layer id="95" name="__module.model.model.decoder.layers.3.encoder_attn/aten::transpose/Transpose_1" type="Transpose" version="opset1">
			<input>
				<port id="0" precision="FP32">
					<dim>-1</dim>
					<dim>-1</dim>
					<dim>8</dim>
					<dim>64</dim>
				</port>
				<port id="1" precision="I32">
					<dim>4</dim>
				</port>
			</input>
			<output>
				<port id="2" precision="FP32" names="579">
					<dim>-1</dim>
					<dim>8</dim>
					<dim>-1</dim>
					<dim>64</dim>
				</port>
			</output>
		</layer>
		<layer id="96" name="ReadValue_21771" type="ReadValue" version="opset6">
			<data variable_id="579" variable_type="dynamic" variable_shape="..." />
			<input>
				<port id="0" precision="FP32">
					<dim>-1</dim>
					<dim>8</dim>
					<dim>-1</dim>
					<dim>64</dim>
				</port>
			</input>
			<output>
				<port id="1" precision="FP32">
					<dim>-1</dim>
					<dim>8</dim>
					<dim>-1</dim>
					<dim>64</dim>
				</port>
			</output>
		</layer>
		<layer id="98" name="self.model.model.decoder.layers.0.encoder_attn.v_proj.weight" type="Const" version="opset1">
			<data element_type="u8" shape="512, 512" offset="1586224" size="262144" />
			<output>
				<port id="0" precision="U8">
					<dim>512</dim>
					<dim>512</dim>
				</port>
			</output>
		</layer>
		<layer id="99" name="Convert_255180" type="Convert" version="opset1">
			<data destination_type="f16" />
			<input>
				<port id="0" precision="U8">
					<dim>512</dim>
					<dim>512</dim>
				</port>
			</input>
			<output>
				<port id="1" precision="FP16">
					<dim>512</dim>
					<dim>512</dim>
				</port>
			</output>
		</layer>
		<layer id="100" name="self.model.model.decoder.layers.0.encoder_attn.v_proj.weight/zero_point" type="Const" version="opset1">
			<data element_type="u8" shape="512, 1" offset="1848368" size="512" />
			<output>
				<port id="0" precision="U8">
					<dim>512</dim>
					<dim>1</dim>
				</port>
			</output>
		</layer>
		<layer id="101" name="Convert_255183" type="Convert" version="opset1">
			<data destination_type="f16" />
			<input>
				<port id="0" precision="U8">
					<dim>512</dim>
					<dim>1</dim>
				</port>
			</input>
			<output>
				<port id="1" precision="FP16">
					<dim>512</dim>
					<dim>1</dim>
				</port>
			</output>
		</layer>
		<layer id="102" name="self.model.model.decoder.layers.0.encoder_attn.v_proj.weight/zero_point/subtract" type="Subtract" version="opset1">
			<data auto_broadcast="numpy" />
			<input>
				<port id="0" precision="FP16">
					<dim>512</dim>
					<dim>512</dim>
				</port>
				<port id="1" precision="FP16">
					<dim>512</dim>
					<dim>1</dim>
				</port>
			</input>
			<output>
				<port id="2" precision="FP16">
					<dim>512</dim>
					<dim>512</dim>
				</port>
			</output>
		</layer>
		<layer id="103" name="self.model.model.decoder.layers.0.encoder_attn.v_proj.weight/scale" type="Const" version="opset1">
			<data element_type="f16" shape="512, 1" offset="1848880" size="1024" />
			<output>
				<port id="0" precision="FP16">
					<dim>512</dim>
					<dim>1</dim>
				</port>
			</output>
		</layer>
		<layer id="104" name="self.model.model.decoder.layers.0.encoder_attn.v_proj.weight/fq_weights_1" type="Multiply" version="opset1">
			<data auto_broadcast="numpy" />
			<input>
				<port id="0" precision="FP16">
					<dim>512</dim>
					<dim>512</dim>
				</port>
				<port id="1" precision="FP16">
					<dim>512</dim>
					<dim>1</dim>
				</port>
			</input>
			<output>
				<port id="2" precision="FP16">
					<dim>512</dim>
					<dim>512</dim>
				</port>
			</output>
		</layer>
		<layer id="105" name="self.model.model.decoder.layers.0.encoder_attn.v_proj.weight/fq_weights_1/convert" type="Convert" version="opset1">
			<data destination_type="f32" />
			<input>
				<port id="0" precision="FP16">
					<dim>512</dim>
					<dim>512</dim>
				</port>
			</input>
			<output>
				<port id="1" precision="FP32">
					<dim>512</dim>
					<dim>512</dim>
				</port>
			</output>
		</layer>
		<layer id="106" name="__module.model.model.decoder.layers.0.encoder_attn.v_proj/aten::linear/MatMul" type="MatMul" version="opset1">
			<data transpose_a="false" transpose_b="true" />
			<input>
				<port id="0" precision="FP32">
					<dim>-1</dim>
					<dim>-1</dim>
					<dim>512</dim>
				</port>
				<port id="1" precision="FP32">
					<dim>512</dim>
					<dim>512</dim>
				</port>
			</input>
			<output>
				<port id="2" precision="FP32">
					<dim>-1</dim>
					<dim>-1</dim>
					<dim>512</dim>
				</port>
			</output>
		</layer>
		<layer id="107" name="Constant_17841" type="Const" version="opset1">
			<data element_type="f32" shape="1, 1, 512" offset="1849904" size="2048" />
			<output>
				<port id="0" precision="FP32">
					<dim>1</dim>
					<dim>1</dim>
					<dim>512</dim>
				</port>
			</output>
		</layer>
		<layer id="108" name="__module.model.model.decoder.layers.0.encoder_attn.v_proj/aten::linear/Add" type="Add" version="opset1">
			<data auto_broadcast="numpy" />
			<input>
				<port id="0" precision="FP32">
					<dim>-1</dim>
					<dim>-1</dim>
					<dim>512</dim>
				</port>
				<port id="1" precision="FP32">
					<dim>1</dim>
					<dim>1</dim>
					<dim>512</dim>
				</port>
			</input>
			<output>
				<port id="2" precision="FP32" names="228">
					<dim>-1</dim>
					<dim>-1</dim>
					<dim>512</dim>
				</port>
			</output>
		</layer>
		<layer id="109" name="Constant_18999" type="Const" version="opset1">
			<data element_type="i64" shape="4" offset="263680" size="32" />
			<output>
				<port id="0" precision="I64">
					<dim>4</dim>
				</port>
			</output>
		</layer>
		<layer id="110" name="__module.model.model.decoder.layers.0.encoder_attn/aten::view/Reshape_2" type="Reshape" version="opset1">
			<data special_zero="true" />
			<input>
				<port id="0" precision="FP32">
					<dim>-1</dim>
					<dim>-1</dim>
					<dim>512</dim>
				</port>
				<port id="1" precision="I64">
					<dim>4</dim>
				</port>
			</input>
			<output>
				<port id="2" precision="FP32" names="230,value_states.7">
					<dim>-1</dim>
					<dim>-1</dim>
					<dim>8</dim>
					<dim>64</dim>
				</port>
			</output>
		</layer>
		<layer id="111" name="__module.model.model.decoder.layers.0.encoder_attn/aten::transpose/Constant_2" type="Const" version="opset1">
			<data element_type="i32" shape="4" offset="263712" size="16" />
			<output>
				<port id="0" precision="I32">
					<dim>4</dim>
				</port>
			</output>
		</layer>
		<layer id="112" name="__module.model.model.decoder.layers.0.encoder_attn/aten::transpose/Transpose_2" type="Transpose" version="opset1">
			<input>
				<port id="0" precision="FP32">
					<dim>-1</dim>
					<dim>-1</dim>
					<dim>8</dim>
					<dim>64</dim>
				</port>
				<port id="1" precision="I32">
					<dim>4</dim>
				</port>
			</input>
			<output>
				<port id="2" precision="FP32" names="233">
					<dim>-1</dim>
					<dim>8</dim>
					<dim>-1</dim>
					<dim>64</dim>
				</port>
			</output>
		</layer>
		<layer id="113" name="ReadValue_21769" type="ReadValue" version="opset6">
			<data variable_id="233" variable_type="dynamic" variable_shape="..." />
			<input>
				<port id="0" precision="FP32">
					<dim>-1</dim>
					<dim>8</dim>
					<dim>-1</dim>
					<dim>64</dim>
				</port>
			</input>
			<output>
				<port id="1" precision="FP32">
					<dim>-1</dim>
					<dim>8</dim>
					<dim>-1</dim>
					<dim>64</dim>
				</port>
			</output>
		</layer>
		<layer id="115" name="self.model.model.decoder.layers.3.encoder_attn.v_proj.weight" type="Const" version="opset1">
			<data element_type="u8" shape="512, 512" offset="1851952" size="262144" />
			<output>
				<port id="0" precision="U8">
					<dim>512</dim>
					<dim>512</dim>
				</port>
			</output>
		</layer>
		<layer id="116" name="Convert_259113" type="Convert" version="opset1">
			<data destination_type="f16" />
			<input>
				<port id="0" precision="U8">
					<dim>512</dim>
					<dim>512</dim>
				</port>
			</input>
			<output>
				<port id="1" precision="FP16">
					<dim>512</dim>
					<dim>512</dim>
				</port>
			</output>
		</layer>
		<layer id="117" name="self.model.model.decoder.layers.3.encoder_attn.v_proj.weight/zero_point" type="Const" version="opset1">
			<data element_type="u8" shape="512, 1" offset="2114096" size="512" />
			<output>
				<port id="0" precision="U8">
					<dim>512</dim>
					<dim>1</dim>
				</port>
			</output>
		</layer>
		<layer id="118" name="Convert_259116" type="Convert" version="opset1">
			<data destination_type="f16" />
			<input>
				<port id="0" precision="U8">
					<dim>512</dim>
					<dim>1</dim>
				</port>
			</input>
			<output>
				<port id="1" precision="FP16">
					<dim>512</dim>
					<dim>1</dim>
				</port>
			</output>
		</layer>
		<layer id="119" name="self.model.model.decoder.layers.3.encoder_attn.v_proj.weight/zero_point/subtract" type="Subtract" version="opset1">
			<data auto_broadcast="numpy" />
			<input>
				<port id="0" precision="FP16">
					<dim>512</dim>
					<dim>512</dim>
				</port>
				<port id="1" precision="FP16">
					<dim>512</dim>
					<dim>1</dim>
				</port>
			</input>
			<output>
				<port id="2" precision="FP16">
					<dim>512</dim>
					<dim>512</dim>
				</port>
			</output>
		</layer>
		<layer id="120" name="self.model.model.decoder.layers.3.encoder_attn.v_proj.weight/scale" type="Const" version="opset1">
			<data element_type="f16" shape="512, 1" offset="2114608" size="1024" />
			<output>
				<port id="0" precision="FP16">
					<dim>512</dim>
					<dim>1</dim>
				</port>
			</output>
		</layer>
		<layer id="121" name="self.model.model.decoder.layers.3.encoder_attn.v_proj.weight/fq_weights_1" type="Multiply" version="opset1">
			<data auto_broadcast="numpy" />
			<input>
				<port id="0" precision="FP16">
					<dim>512</dim>
					<dim>512</dim>
				</port>
				<port id="1" precision="FP16">
					<dim>512</dim>
					<dim>1</dim>
				</port>
			</input>
			<output>
				<port id="2" precision="FP16">
					<dim>512</dim>
					<dim>512</dim>
				</port>
			</output>
		</layer>
		<layer id="122" name="self.model.model.decoder.layers.3.encoder_attn.v_proj.weight/fq_weights_1/convert" type="Convert" version="opset1">
			<data destination_type="f32" />
			<input>
				<port id="0" precision="FP16">
					<dim>512</dim>
					<dim>512</dim>
				</port>
			</input>
			<output>
				<port id="1" precision="FP32">
					<dim>512</dim>
					<dim>512</dim>
				</port>
			</output>
		</layer>
		<layer id="123" name="__module.model.model.decoder.layers.3.encoder_attn.v_proj/aten::linear/MatMul" type="MatMul" version="opset1">
			<data transpose_a="false" transpose_b="true" />
			<input>
				<port id="0" precision="FP32">
					<dim>-1</dim>
					<dim>-1</dim>
					<dim>512</dim>
				</port>
				<port id="1" precision="FP32">
					<dim>512</dim>
					<dim>512</dim>
				</port>
			</input>
			<output>
				<port id="2" precision="FP32">
					<dim>-1</dim>
					<dim>-1</dim>
					<dim>512</dim>
				</port>
			</output>
		</layer>
		<layer id="124" name="Constant_17883" type="Const" version="opset1">
			<data element_type="f32" shape="1, 1, 512" offset="2115632" size="2048" />
			<output>
				<port id="0" precision="FP32">
					<dim>1</dim>
					<dim>1</dim>
					<dim>512</dim>
				</port>
			</output>
		</layer>
		<layer id="125" name="__module.model.model.decoder.layers.3.encoder_attn.v_proj/aten::linear/Add" type="Add" version="opset1">
			<data auto_broadcast="numpy" />
			<input>
				<port id="0" precision="FP32">
					<dim>-1</dim>
					<dim>-1</dim>
					<dim>512</dim>
				</port>
				<port id="1" precision="FP32">
					<dim>1</dim>
					<dim>1</dim>
					<dim>512</dim>
				</port>
			</input>
			<output>
				<port id="2" precision="FP32" names="576">
					<dim>-1</dim>
					<dim>-1</dim>
					<dim>512</dim>
				</port>
			</output>
		</layer>
		<layer id="126" name="Constant_19023" type="Const" version="opset1">
			<data element_type="i64" shape="4" offset="263680" size="32" />
			<output>
				<port id="0" precision="I64">
					<dim>4</dim>
				</port>
			</output>
		</layer>
		<layer id="127" name="__module.model.model.decoder.layers.3.encoder_attn/aten::view/Reshape_2" type="Reshape" version="opset1">
			<data special_zero="true" />
			<input>
				<port id="0" precision="FP32">
					<dim>-1</dim>
					<dim>-1</dim>
					<dim>512</dim>
				</port>
				<port id="1" precision="I64">
					<dim>4</dim>
				</port>
			</input>
			<output>
				<port id="2" precision="FP32" names="578,value_states.37">
					<dim>-1</dim>
					<dim>-1</dim>
					<dim>8</dim>
					<dim>64</dim>
				</port>
			</output>
		</layer>
		<layer id="128" name="__module.model.model.decoder.layers.3.encoder_attn/aten::transpose/Constant_2" type="Const" version="opset1">
			<data element_type="i32" shape="4" offset="263712" size="16" />
			<output>
				<port id="0" precision="I32">
					<dim>4</dim>
				</port>
			</output>
		</layer>
		<layer id="129" name="__module.model.model.decoder.layers.3.encoder_attn/aten::transpose/Transpose_2" type="Transpose" version="opset1">
			<input>
				<port id="0" precision="FP32">
					<dim>-1</dim>
					<dim>-1</dim>
					<dim>8</dim>
					<dim>64</dim>
				</port>
				<port id="1" precision="I32">
					<dim>4</dim>
				</port>
			</input>
			<output>
				<port id="2" precision="FP32" names="581">
					<dim>-1</dim>
					<dim>8</dim>
					<dim>-1</dim>
					<dim>64</dim>
				</port>
			</output>
		</layer>
		<layer id="130" name="ReadValue_21767" type="ReadValue" version="opset6">
			<data variable_id="581" variable_type="dynamic" variable_shape="..." />
			<input>
				<port id="0" precision="FP32">
					<dim>-1</dim>
					<dim>8</dim>
					<dim>-1</dim>
					<dim>64</dim>
				</port>
			</input>
			<output>
				<port id="1" precision="FP32">
					<dim>-1</dim>
					<dim>8</dim>
					<dim>-1</dim>
					<dim>64</dim>
				</port>
			</output>
		</layer>
		<layer id="132" name="self.model.model.decoder.layers.2.encoder_attn.k_proj.weight" type="Const" version="opset1">
			<data element_type="u8" shape="512, 512" offset="2117680" size="262144" />
			<output>
				<port id="0" precision="U8">
					<dim>512</dim>
					<dim>512</dim>
				</port>
			</output>
		</layer>
		<layer id="133" name="Convert_263046" type="Convert" version="opset1">
			<data destination_type="f16" />
			<input>
				<port id="0" precision="U8">
					<dim>512</dim>
					<dim>512</dim>
				</port>
			</input>
			<output>
				<port id="1" precision="FP16">
					<dim>512</dim>
					<dim>512</dim>
				</port>
			</output>
		</layer>
		<layer id="134" name="self.model.model.decoder.layers.2.encoder_attn.k_proj.weight/zero_point" type="Const" version="opset1">
			<data element_type="u8" shape="512, 1" offset="2379824" size="512" />
			<output>
				<port id="0" precision="U8">
					<dim>512</dim>
					<dim>1</dim>
				</port>
			</output>
		</layer>
		<layer id="135" name="Convert_263049" type="Convert" version="opset1">
			<data destination_type="f16" />
			<input>
				<port id="0" precision="U8">
					<dim>512</dim>
					<dim>1</dim>
				</port>
			</input>
			<output>
				<port id="1" precision="FP16">
					<dim>512</dim>
					<dim>1</dim>
				</port>
			</output>
		</layer>
		<layer id="136" name="self.model.model.decoder.layers.2.encoder_attn.k_proj.weight/zero_point/subtract" type="Subtract" version="opset1">
			<data auto_broadcast="numpy" />
			<input>
				<port id="0" precision="FP16">
					<dim>512</dim>
					<dim>512</dim>
				</port>
				<port id="1" precision="FP16">
					<dim>512</dim>
					<dim>1</dim>
				</port>
			</input>
			<output>
				<port id="2" precision="FP16">
					<dim>512</dim>
					<dim>512</dim>
				</port>
			</output>
		</layer>
		<layer id="137" name="self.model.model.decoder.layers.2.encoder_attn.k_proj.weight/scale" type="Const" version="opset1">
			<data element_type="f16" shape="512, 1" offset="2380336" size="1024" />
			<output>
				<port id="0" precision="FP16">
					<dim>512</dim>
					<dim>1</dim>
				</port>
			</output>
		</layer>
		<layer id="138" name="self.model.model.decoder.layers.2.encoder_attn.k_proj.weight/fq_weights_1" type="Multiply" version="opset1">
			<data auto_broadcast="numpy" />
			<input>
				<port id="0" precision="FP16">
					<dim>512</dim>
					<dim>512</dim>
				</port>
				<port id="1" precision="FP16">
					<dim>512</dim>
					<dim>1</dim>
				</port>
			</input>
			<output>
				<port id="2" precision="FP16">
					<dim>512</dim>
					<dim>512</dim>
				</port>
			</output>
		</layer>
		<layer id="139" name="self.model.model.decoder.layers.2.encoder_attn.k_proj.weight/fq_weights_1/convert" type="Convert" version="opset1">
			<data destination_type="f32" />
			<input>
				<port id="0" precision="FP16">
					<dim>512</dim>
					<dim>512</dim>
				</port>
			</input>
			<output>
				<port id="1" precision="FP32">
					<dim>512</dim>
					<dim>512</dim>
				</port>
			</output>
		</layer>
		<layer id="140" name="__module.model.model.decoder.layers.2.encoder_attn.k_proj/aten::linear/MatMul" type="MatMul" version="opset1">
			<data transpose_a="false" transpose_b="true" />
			<input>
				<port id="0" precision="FP32">
					<dim>-1</dim>
					<dim>-1</dim>
					<dim>512</dim>
				</port>
				<port id="1" precision="FP32">
					<dim>512</dim>
					<dim>512</dim>
				</port>
			</input>
			<output>
				<port id="2" precision="FP32" names="455">
					<dim>-1</dim>
					<dim>-1</dim>
					<dim>512</dim>
				</port>
			</output>
		</layer>
		<layer id="141" name="Constant_19014" type="Const" version="opset1">
			<data element_type="i64" shape="4" offset="263680" size="32" />
			<output>
				<port id="0" precision="I64">
					<dim>4</dim>
				</port>
			</output>
		</layer>
		<layer id="142" name="__module.model.model.decoder.layers.2.encoder_attn/aten::view/Reshape_1" type="Reshape" version="opset1">
			<data special_zero="true" />
			<input>
				<port id="0" precision="FP32">
					<dim>-1</dim>
					<dim>-1</dim>
					<dim>512</dim>
				</port>
				<port id="1" precision="I64">
					<dim>4</dim>
				</port>
			</input>
			<output>
				<port id="2" precision="FP32" names="457,key_states.31">
					<dim>-1</dim>
					<dim>-1</dim>
					<dim>8</dim>
					<dim>64</dim>
				</port>
			</output>
		</layer>
		<layer id="143" name="__module.model.model.decoder.layers.2.encoder_attn/aten::transpose/Constant_1" type="Const" version="opset1">
			<data element_type="i32" shape="4" offset="263712" size="16" />
			<output>
				<port id="0" precision="I32">
					<dim>4</dim>
				</port>
			</output>
		</layer>
		<layer id="144" name="__module.model.model.decoder.layers.2.encoder_attn/aten::transpose/Transpose_1" type="Transpose" version="opset1">
			<input>
				<port id="0" precision="FP32">
					<dim>-1</dim>
					<dim>-1</dim>
					<dim>8</dim>
					<dim>64</dim>
				</port>
				<port id="1" precision="I32">
					<dim>4</dim>
				</port>
			</input>
			<output>
				<port id="2" precision="FP32" names="463">
					<dim>-1</dim>
					<dim>8</dim>
					<dim>-1</dim>
					<dim>64</dim>
				</port>
			</output>
		</layer>
		<layer id="145" name="ReadValue_21765" type="ReadValue" version="opset6">
			<data variable_id="463" variable_type="dynamic" variable_shape="..." />
			<input>
				<port id="0" precision="FP32">
					<dim>-1</dim>
					<dim>8</dim>
					<dim>-1</dim>
					<dim>64</dim>
				</port>
			</input>
			<output>
				<port id="1" precision="FP32">
					<dim>-1</dim>
					<dim>8</dim>
					<dim>-1</dim>
					<dim>64</dim>
				</port>
			</output>
		</layer>
		<layer id="147" name="self.model.model.decoder.layers.5.encoder_attn.k_proj.weight" type="Const" version="opset1">
			<data element_type="u8" shape="512, 512" offset="2381360" size="262144" />
			<output>
				<port id="0" precision="U8">
					<dim>512</dim>
					<dim>512</dim>
				</port>
			</output>
		</layer>
		<layer id="148" name="Convert_266979" type="Convert" version="opset1">
			<data destination_type="f16" />
			<input>
				<port id="0" precision="U8">
					<dim>512</dim>
					<dim>512</dim>
				</port>
			</input>
			<output>
				<port id="1" precision="FP16">
					<dim>512</dim>
					<dim>512</dim>
				</port>
			</output>
		</layer>
		<layer id="149" name="self.model.model.decoder.layers.5.encoder_attn.k_proj.weight/zero_point" type="Const" version="opset1">
			<data element_type="u8" shape="512, 1" offset="2643504" size="512" />
			<output>
				<port id="0" precision="U8">
					<dim>512</dim>
					<dim>1</dim>
				</port>
			</output>
		</layer>
		<layer id="150" name="Convert_266982" type="Convert" version="opset1">
			<data destination_type="f16" />
			<input>
				<port id="0" precision="U8">
					<dim>512</dim>
					<dim>1</dim>
				</port>
			</input>
			<output>
				<port id="1" precision="FP16">
					<dim>512</dim>
					<dim>1</dim>
				</port>
			</output>
		</layer>
		<layer id="151" name="self.model.model.decoder.layers.5.encoder_attn.k_proj.weight/zero_point/subtract" type="Subtract" version="opset1">
			<data auto_broadcast="numpy" />
			<input>
				<port id="0" precision="FP16">
					<dim>512</dim>
					<dim>512</dim>
				</port>
				<port id="1" precision="FP16">
					<dim>512</dim>
					<dim>1</dim>
				</port>
			</input>
			<output>
				<port id="2" precision="FP16">
					<dim>512</dim>
					<dim>512</dim>
				</port>
			</output>
		</layer>
		<layer id="152" name="self.model.model.decoder.layers.5.encoder_attn.k_proj.weight/scale" type="Const" version="opset1">
			<data element_type="f16" shape="512, 1" offset="2644016" size="1024" />
			<output>
				<port id="0" precision="FP16">
					<dim>512</dim>
					<dim>1</dim>
				</port>
			</output>
		</layer>
		<layer id="153" name="self.model.model.decoder.layers.5.encoder_attn.k_proj.weight/fq_weights_1" type="Multiply" version="opset1">
			<data auto_broadcast="numpy" />
			<input>
				<port id="0" precision="FP16">
					<dim>512</dim>
					<dim>512</dim>
				</port>
				<port id="1" precision="FP16">
					<dim>512</dim>
					<dim>1</dim>
				</port>
			</input>
			<output>
				<port id="2" precision="FP16">
					<dim>512</dim>
					<dim>512</dim>
				</port>
			</output>
		</layer>
		<layer id="154" name="self.model.model.decoder.layers.5.encoder_attn.k_proj.weight/fq_weights_1/convert" type="Convert" version="opset1">
			<data destination_type="f32" />
			<input>
				<port id="0" precision="FP16">
					<dim>512</dim>
					<dim>512</dim>
				</port>
			</input>
			<output>
				<port id="1" precision="FP32">
					<dim>512</dim>
					<dim>512</dim>
				</port>
			</output>
		</layer>
		<layer id="155" name="__module.model.model.decoder.layers.5.encoder_attn.k_proj/aten::linear/MatMul" type="MatMul" version="opset1">
			<data transpose_a="false" transpose_b="true" />
			<input>
				<port id="0" precision="FP32">
					<dim>-1</dim>
					<dim>-1</dim>
					<dim>512</dim>
				</port>
				<port id="1" precision="FP32">
					<dim>512</dim>
					<dim>512</dim>
				</port>
			</input>
			<output>
				<port id="2" precision="FP32" names="803">
					<dim>-1</dim>
					<dim>-1</dim>
					<dim>512</dim>
				</port>
			</output>
		</layer>
		<layer id="156" name="Constant_19038" type="Const" version="opset1">
			<data element_type="i64" shape="4" offset="263680" size="32" />
			<output>
				<port id="0" precision="I64">
					<dim>4</dim>
				</port>
			</output>
		</layer>
		<layer id="157" name="__module.model.model.decoder.layers.5.encoder_attn/aten::view/Reshape_1" type="Reshape" version="opset1">
			<data special_zero="true" />
			<input>
				<port id="0" precision="FP32">
					<dim>-1</dim>
					<dim>-1</dim>
					<dim>512</dim>
				</port>
				<port id="1" precision="I64">
					<dim>4</dim>
				</port>
			</input>
			<output>
				<port id="2" precision="FP32" names="805,key_states.61">
					<dim>-1</dim>
					<dim>-1</dim>
					<dim>8</dim>
					<dim>64</dim>
				</port>
			</output>
		</layer>
		<layer id="158" name="__module.model.model.decoder.layers.5.encoder_attn/aten::transpose/Constant_1" type="Const" version="opset1">
			<data element_type="i32" shape="4" offset="263712" size="16" />
			<output>
				<port id="0" precision="I32">
					<dim>4</dim>
				</port>
			</output>
		</layer>
		<layer id="159" name="__module.model.model.decoder.layers.5.encoder_attn/aten::transpose/Transpose_1" type="Transpose" version="opset1">
			<input>
				<port id="0" precision="FP32">
					<dim>-1</dim>
					<dim>-1</dim>
					<dim>8</dim>
					<dim>64</dim>
				</port>
				<port id="1" precision="I32">
					<dim>4</dim>
				</port>
			</input>
			<output>
				<port id="2" precision="FP32" names="811">
					<dim>-1</dim>
					<dim>8</dim>
					<dim>-1</dim>
					<dim>64</dim>
				</port>
			</output>
		</layer>
		<layer id="160" name="ReadValue_21763" type="ReadValue" version="opset6">
			<data variable_id="811" variable_type="dynamic" variable_shape="..." />
			<input>
				<port id="0" precision="FP32">
					<dim>-1</dim>
					<dim>8</dim>
					<dim>-1</dim>
					<dim>64</dim>
				</port>
			</input>
			<output>
				<port id="1" precision="FP32">
					<dim>-1</dim>
					<dim>8</dim>
					<dim>-1</dim>
					<dim>64</dim>
				</port>
			</output>
		</layer>
		<layer id="162" name="self.model.model.decoder.layers.4.encoder_attn.v_proj.weight" type="Const" version="opset1">
			<data element_type="u8" shape="512, 512" offset="2645040" size="262144" />
			<output>
				<port id="0" precision="U8">
					<dim>512</dim>
					<dim>512</dim>
				</port>
			</output>
		</layer>
		<layer id="163" name="Convert_270912" type="Convert" version="opset1">
			<data destination_type="f16" />
			<input>
				<port id="0" precision="U8">
					<dim>512</dim>
					<dim>512</dim>
				</port>
			</input>
			<output>
				<port id="1" precision="FP16">
					<dim>512</dim>
					<dim>512</dim>
				</port>
			</output>
		</layer>
		<layer id="164" name="self.model.model.decoder.layers.4.encoder_attn.v_proj.weight/zero_point" type="Const" version="opset1">
			<data element_type="u8" shape="512, 1" offset="2907184" size="512" />
			<output>
				<port id="0" precision="U8">
					<dim>512</dim>
					<dim>1</dim>
				</port>
			</output>
		</layer>
		<layer id="165" name="Convert_270915" type="Convert" version="opset1">
			<data destination_type="f16" />
			<input>
				<port id="0" precision="U8">
					<dim>512</dim>
					<dim>1</dim>
				</port>
			</input>
			<output>
				<port id="1" precision="FP16">
					<dim>512</dim>
					<dim>1</dim>
				</port>
			</output>
		</layer>
		<layer id="166" name="self.model.model.decoder.layers.4.encoder_attn.v_proj.weight/zero_point/subtract" type="Subtract" version="opset1">
			<data auto_broadcast="numpy" />
			<input>
				<port id="0" precision="FP16">
					<dim>512</dim>
					<dim>512</dim>
				</port>
				<port id="1" precision="FP16">
					<dim>512</dim>
					<dim>1</dim>
				</port>
			</input>
			<output>
				<port id="2" precision="FP16">
					<dim>512</dim>
					<dim>512</dim>
				</port>
			</output>
		</layer>
		<layer id="167" name="self.model.model.decoder.layers.4.encoder_attn.v_proj.weight/scale" type="Const" version="opset1">
			<data element_type="f16" shape="512, 1" offset="2907696" size="1024" />
			<output>
				<port id="0" precision="FP16">
					<dim>512</dim>
					<dim>1</dim>
				</port>
			</output>
		</layer>
		<layer id="168" name="self.model.model.decoder.layers.4.encoder_attn.v_proj.weight/fq_weights_1" type="Multiply" version="opset1">
			<data auto_broadcast="numpy" />
			<input>
				<port id="0" precision="FP16">
					<dim>512</dim>
					<dim>512</dim>
				</port>
				<port id="1" precision="FP16">
					<dim>512</dim>
					<dim>1</dim>
				</port>
			</input>
			<output>
				<port id="2" precision="FP16">
					<dim>512</dim>
					<dim>512</dim>
				</port>
			</output>
		</layer>
		<layer id="169" name="self.model.model.decoder.layers.4.encoder_attn.v_proj.weight/fq_weights_1/convert" type="Convert" version="opset1">
			<data destination_type="f32" />
			<input>
				<port id="0" precision="FP16">
					<dim>512</dim>
					<dim>512</dim>
				</port>
			</input>
			<output>
				<port id="1" precision="FP32">
					<dim>512</dim>
					<dim>512</dim>
				</port>
			</output>
		</layer>
		<layer id="170" name="__module.model.model.decoder.layers.4.encoder_attn.v_proj/aten::linear/MatMul" type="MatMul" version="opset1">
			<data transpose_a="false" transpose_b="true" />
			<input>
				<port id="0" precision="FP32">
					<dim>-1</dim>
					<dim>-1</dim>
					<dim>512</dim>
				</port>
				<port id="1" precision="FP32">
					<dim>512</dim>
					<dim>512</dim>
				</port>
			</input>
			<output>
				<port id="2" precision="FP32">
					<dim>-1</dim>
					<dim>-1</dim>
					<dim>512</dim>
				</port>
			</output>
		</layer>
		<layer id="171" name="Constant_17897" type="Const" version="opset1">
			<data element_type="f32" shape="1, 1, 512" offset="2908720" size="2048" />
			<output>
				<port id="0" precision="FP32">
					<dim>1</dim>
					<dim>1</dim>
					<dim>512</dim>
				</port>
			</output>
		</layer>
		<layer id="172" name="__module.model.model.decoder.layers.4.encoder_attn.v_proj/aten::linear/Add" type="Add" version="opset1">
			<data auto_broadcast="numpy" />
			<input>
				<port id="0" precision="FP32">
					<dim>-1</dim>
					<dim>-1</dim>
					<dim>512</dim>
				</port>
				<port id="1" precision="FP32">
					<dim>1</dim>
					<dim>1</dim>
					<dim>512</dim>
				</port>
			</input>
			<output>
				<port id="2" precision="FP32" names="692">
					<dim>-1</dim>
					<dim>-1</dim>
					<dim>512</dim>
				</port>
			</output>
		</layer>
		<layer id="173" name="Constant_19031" type="Const" version="opset1">
			<data element_type="i64" shape="4" offset="263680" size="32" />
			<output>
				<port id="0" precision="I64">
					<dim>4</dim>
				</port>
			</output>
		</layer>
		<layer id="174" name="__module.model.model.decoder.layers.4.encoder_attn/aten::view/Reshape_2" type="Reshape" version="opset1">
			<data special_zero="true" />
			<input>
				<port id="0" precision="FP32">
					<dim>-1</dim>
					<dim>-1</dim>
					<dim>512</dim>
				</port>
				<port id="1" precision="I64">
					<dim>4</dim>
				</port>
			</input>
			<output>
				<port id="2" precision="FP32" names="694,value_states.47">
					<dim>-1</dim>
					<dim>-1</dim>
					<dim>8</dim>
					<dim>64</dim>
				</port>
			</output>
		</layer>
		<layer id="175" name="__module.model.model.decoder.layers.4.encoder_attn/aten::transpose/Constant_2" type="Const" version="opset1">
			<data element_type="i32" shape="4" offset="263712" size="16" />
			<output>
				<port id="0" precision="I32">
					<dim>4</dim>
				</port>
			</output>
		</layer>
		<layer id="176" name="__module.model.model.decoder.layers.4.encoder_attn/aten::transpose/Transpose_2" type="Transpose" version="opset1">
			<input>
				<port id="0" precision="FP32">
					<dim>-1</dim>
					<dim>-1</dim>
					<dim>8</dim>
					<dim>64</dim>
				</port>
				<port id="1" precision="I32">
					<dim>4</dim>
				</port>
			</input>
			<output>
				<port id="2" precision="FP32" names="697">
					<dim>-1</dim>
					<dim>8</dim>
					<dim>-1</dim>
					<dim>64</dim>
				</port>
			</output>
		</layer>
		<layer id="177" name="ReadValue_21761" type="ReadValue" version="opset6">
			<data variable_id="697" variable_type="dynamic" variable_shape="..." />
			<input>
				<port id="0" precision="FP32">
					<dim>-1</dim>
					<dim>8</dim>
					<dim>-1</dim>
					<dim>64</dim>
				</port>
			</input>
			<output>
				<port id="1" precision="FP32">
					<dim>-1</dim>
					<dim>8</dim>
					<dim>-1</dim>
					<dim>64</dim>
				</port>
			</output>
		</layer>
		<layer id="179" name="self.model.model.decoder.layers.2.encoder_attn.v_proj.weight" type="Const" version="opset1">
			<data element_type="u8" shape="512, 512" offset="2910768" size="262144" />
			<output>
				<port id="0" precision="U8">
					<dim>512</dim>
					<dim>512</dim>
				</port>
			</output>
		</layer>
		<layer id="180" name="Convert_274845" type="Convert" version="opset1">
			<data destination_type="f16" />
			<input>
				<port id="0" precision="U8">
					<dim>512</dim>
					<dim>512</dim>
				</port>
			</input>
			<output>
				<port id="1" precision="FP16">
					<dim>512</dim>
					<dim>512</dim>
				</port>
			</output>
		</layer>
		<layer id="181" name="self.model.model.decoder.layers.2.encoder_attn.v_proj.weight/zero_point" type="Const" version="opset1">
			<data element_type="u8" shape="512, 1" offset="3172912" size="512" />
			<output>
				<port id="0" precision="U8">
					<dim>512</dim>
					<dim>1</dim>
				</port>
			</output>
		</layer>
		<layer id="182" name="Convert_274848" type="Convert" version="opset1">
			<data destination_type="f16" />
			<input>
				<port id="0" precision="U8">
					<dim>512</dim>
					<dim>1</dim>
				</port>
			</input>
			<output>
				<port id="1" precision="FP16">
					<dim>512</dim>
					<dim>1</dim>
				</port>
			</output>
		</layer>
		<layer id="183" name="self.model.model.decoder.layers.2.encoder_attn.v_proj.weight/zero_point/subtract" type="Subtract" version="opset1">
			<data auto_broadcast="numpy" />
			<input>
				<port id="0" precision="FP16">
					<dim>512</dim>
					<dim>512</dim>
				</port>
				<port id="1" precision="FP16">
					<dim>512</dim>
					<dim>1</dim>
				</port>
			</input>
			<output>
				<port id="2" precision="FP16">
					<dim>512</dim>
					<dim>512</dim>
				</port>
			</output>
		</layer>
		<layer id="184" name="self.model.model.decoder.layers.2.encoder_attn.v_proj.weight/scale" type="Const" version="opset1">
			<data element_type="f16" shape="512, 1" offset="3173424" size="1024" />
			<output>
				<port id="0" precision="FP16">
					<dim>512</dim>
					<dim>1</dim>
				</port>
			</output>
		</layer>
		<layer id="185" name="self.model.model.decoder.layers.2.encoder_attn.v_proj.weight/fq_weights_1" type="Multiply" version="opset1">
			<data auto_broadcast="numpy" />
			<input>
				<port id="0" precision="FP16">
					<dim>512</dim>
					<dim>512</dim>
				</port>
				<port id="1" precision="FP16">
					<dim>512</dim>
					<dim>1</dim>
				</port>
			</input>
			<output>
				<port id="2" precision="FP16">
					<dim>512</dim>
					<dim>512</dim>
				</port>
			</output>
		</layer>
		<layer id="186" name="self.model.model.decoder.layers.2.encoder_attn.v_proj.weight/fq_weights_1/convert" type="Convert" version="opset1">
			<data destination_type="f32" />
			<input>
				<port id="0" precision="FP16">
					<dim>512</dim>
					<dim>512</dim>
				</port>
			</input>
			<output>
				<port id="1" precision="FP32">
					<dim>512</dim>
					<dim>512</dim>
				</port>
			</output>
		</layer>
		<layer id="187" name="__module.model.model.decoder.layers.2.encoder_attn.v_proj/aten::linear/MatMul" type="MatMul" version="opset1">
			<data transpose_a="false" transpose_b="true" />
			<input>
				<port id="0" precision="FP32">
					<dim>-1</dim>
					<dim>-1</dim>
					<dim>512</dim>
				</port>
				<port id="1" precision="FP32">
					<dim>512</dim>
					<dim>512</dim>
				</port>
			</input>
			<output>
				<port id="2" precision="FP32">
					<dim>-1</dim>
					<dim>-1</dim>
					<dim>512</dim>
				</port>
			</output>
		</layer>
		<layer id="188" name="Constant_17869" type="Const" version="opset1">
			<data element_type="f32" shape="1, 1, 512" offset="3174448" size="2048" />
			<output>
				<port id="0" precision="FP32">
					<dim>1</dim>
					<dim>1</dim>
					<dim>512</dim>
				</port>
			</output>
		</layer>
		<layer id="189" name="__module.model.model.decoder.layers.2.encoder_attn.v_proj/aten::linear/Add" type="Add" version="opset1">
			<data auto_broadcast="numpy" />
			<input>
				<port id="0" precision="FP32">
					<dim>-1</dim>
					<dim>-1</dim>
					<dim>512</dim>
				</port>
				<port id="1" precision="FP32">
					<dim>1</dim>
					<dim>1</dim>
					<dim>512</dim>
				</port>
			</input>
			<output>
				<port id="2" precision="FP32" names="460">
					<dim>-1</dim>
					<dim>-1</dim>
					<dim>512</dim>
				</port>
			</output>
		</layer>
		<layer id="190" name="Constant_19015" type="Const" version="opset1">
			<data element_type="i64" shape="4" offset="263680" size="32" />
			<output>
				<port id="0" precision="I64">
					<dim>4</dim>
				</port>
			</output>
		</layer>
		<layer id="191" name="__module.model.model.decoder.layers.2.encoder_attn/aten::view/Reshape_2" type="Reshape" version="opset1">
			<data special_zero="true" />
			<input>
				<port id="0" precision="FP32">
					<dim>-1</dim>
					<dim>-1</dim>
					<dim>512</dim>
				</port>
				<port id="1" precision="I64">
					<dim>4</dim>
				</port>
			</input>
			<output>
				<port id="2" precision="FP32" names="462,value_states.27">
					<dim>-1</dim>
					<dim>-1</dim>
					<dim>8</dim>
					<dim>64</dim>
				</port>
			</output>
		</layer>
		<layer id="192" name="__module.model.model.decoder.layers.2.encoder_attn/aten::transpose/Constant_2" type="Const" version="opset1">
			<data element_type="i32" shape="4" offset="263712" size="16" />
			<output>
				<port id="0" precision="I32">
					<dim>4</dim>
				</port>
			</output>
		</layer>
		<layer id="193" name="__module.model.model.decoder.layers.2.encoder_attn/aten::transpose/Transpose_2" type="Transpose" version="opset1">
			<input>
				<port id="0" precision="FP32">
					<dim>-1</dim>
					<dim>-1</dim>
					<dim>8</dim>
					<dim>64</dim>
				</port>
				<port id="1" precision="I32">
					<dim>4</dim>
				</port>
			</input>
			<output>
				<port id="2" precision="FP32" names="465">
					<dim>-1</dim>
					<dim>8</dim>
					<dim>-1</dim>
					<dim>64</dim>
				</port>
			</output>
		</layer>
		<layer id="194" name="ReadValue_21759" type="ReadValue" version="opset6">
			<data variable_id="465" variable_type="dynamic" variable_shape="..." />
			<input>
				<port id="0" precision="FP32">
					<dim>-1</dim>
					<dim>8</dim>
					<dim>-1</dim>
					<dim>64</dim>
				</port>
			</input>
			<output>
				<port id="1" precision="FP32">
					<dim>-1</dim>
					<dim>8</dim>
					<dim>-1</dim>
					<dim>64</dim>
				</port>
			</output>
		</layer>
		<layer id="196" name="Constant_21205" type="Const" version="opset1">
			<data element_type="f32" shape="" offset="3176496" size="4" />
			<output>
				<port id="0" precision="FP32" />
			</output>
		</layer>
		<layer id="197" name="ShapeOf_21191" type="ShapeOf" version="opset3">
			<data output_type="i64" />
			<input>
				<port id="0" precision="I64">
					<dim>-1</dim>
					<dim>-1</dim>
				</port>
			</input>
			<output>
				<port id="1" precision="I64">
					<dim>2</dim>
				</port>
			</output>
		</layer>
		<layer id="198" name="Constant_21193" type="Const" version="opset1">
			<data element_type="i64" shape="1" offset="3176500" size="8" />
			<output>
				<port id="0" precision="I64">
					<dim>1</dim>
				</port>
			</output>
		</layer>
		<layer id="199" name="Constant_21195" type="Const" version="opset1">
			<data element_type="i64" shape="" offset="3176500" size="8" />
			<output>
				<port id="0" precision="I64" />
			</output>
		</layer>
		<layer id="200" name="Gather_21196" type="Gather" version="opset8">
			<data batch_dims="0" />
			<input>
				<port id="0" precision="I64">
					<dim>2</dim>
				</port>
				<port id="1" precision="I64">
					<dim>1</dim>
				</port>
				<port id="2" precision="I64" />
			</input>
			<output>
				<port id="3" precision="I64">
					<dim>1</dim>
				</port>
			</output>
		</layer>
		<layer id="201" name="Constant_21198" type="Const" version="opset1">
			<data element_type="i64" shape="1" offset="3176508" size="8" />
			<output>
				<port id="0" precision="I64">
					<dim>1</dim>
				</port>
			</output>
		</layer>
		<layer id="202" name="Constant_21200" type="Const" version="opset1">
			<data element_type="i64" shape="1" offset="3176500" size="8" />
			<output>
				<port id="0" precision="I64">
					<dim>1</dim>
				</port>
			</output>
		</layer>
		<layer id="203" name="Constant_21202" type="Const" version="opset1">
			<data element_type="i64" shape="1" offset="3176516" size="8" />
			<output>
				<port id="0" precision="I64">
					<dim>1</dim>
				</port>
			</output>
		</layer>
		<layer id="204" name="Concat_21203" type="Concat" version="opset1">
			<data axis="0" />
			<input>
				<port id="0" precision="I64">
					<dim>1</dim>
				</port>
				<port id="1" precision="I64">
					<dim>1</dim>
				</port>
				<port id="2" precision="I64">
					<dim>1</dim>
				</port>
				<port id="3" precision="I64">
					<dim>1</dim>
				</port>
			</input>
			<output>
				<port id="4" precision="I64">
					<dim>4</dim>
				</port>
			</output>
		</layer>
		<layer id="205" name="Broadcast_21206" type="Broadcast" version="opset3">
			<data mode="numpy" />
			<input>
				<port id="0" precision="FP32" />
				<port id="1" precision="I64">
					<dim>4</dim>
				</port>
			</input>
			<output>
				<port id="2" precision="FP32">
					<dim>-1</dim>
					<dim>8</dim>
					<dim>0</dim>
					<dim>64</dim>
				</port>
			</output>
		</layer>
		<layer id="206" name="ReadValue_20795" type="ReadValue" version="opset6">
			<data variable_id="past_key_values.5.decoder.valuepresent.5.decoder.value" variable_type="f32" variable_shape="?,8,?,64" />
			<input>
				<port id="0" precision="FP32">
					<dim>-1</dim>
					<dim>8</dim>
					<dim>0</dim>
					<dim>64</dim>
				</port>
			</input>
			<output>
				<port id="1" precision="FP32" names="past_key_values.5.decoder.value">
					<dim>-1</dim>
					<dim>8</dim>
					<dim>-1</dim>
					<dim>64</dim>
				</port>
			</output>
		</layer>
		<layer id="207" name="Constant_20377" type="Const" version="opset1">
			<data element_type="i64" shape="" offset="3176500" size="8" />
			<output>
				<port id="0" precision="I64" />
			</output>
		</layer>
		<layer id="208" name="Gather_20378" type="Gather" version="opset8">
			<data batch_dims="0" />
			<input>
				<port id="0" precision="FP32">
					<dim>-1</dim>
					<dim>8</dim>
					<dim>-1</dim>
					<dim>64</dim>
				</port>
				<port id="1" precision="I32">
					<dim>-1</dim>
				</port>
				<port id="2" precision="I64" />
			</input>
			<output>
				<port id="3" precision="FP32">
					<dim>-1</dim>
					<dim>8</dim>
					<dim>-1</dim>
					<dim>64</dim>
				</port>
			</output>
		</layer>
		<layer id="209" name="self.model.model.decoder.embed_tokens.weight" type="Const" version="opset1">
			<data element_type="u8" shape="51865, 512" offset="3176524" size="26554880" />
			<output>
				<port id="0" precision="U8">
					<dim>51865</dim>
					<dim>512</dim>
				</port>
			</output>
		</layer>
		<layer id="210" name="Convert_180453" type="Convert" version="opset1">
			<data destination_type="f16" />
			<input>
				<port id="0" precision="U8">
					<dim>51865</dim>
					<dim>512</dim>
				</port>
			</input>
			<output>
				<port id="1" precision="FP16">
					<dim>51865</dim>
					<dim>512</dim>
				</port>
			</output>
		</layer>
		<layer id="211" name="self.model.model.decoder.embed_tokens.weight/zero_point" type="Const" version="opset1">
			<data element_type="u8" shape="51865, 1" offset="29731404" size="51865" />
			<output>
				<port id="0" precision="U8">
					<dim>51865</dim>
					<dim>1</dim>
				</port>
			</output>
		</layer>
		<layer id="212" name="Convert_180456" type="Convert" version="opset1">
			<data destination_type="f16" />
			<input>
				<port id="0" precision="U8">
					<dim>51865</dim>
					<dim>1</dim>
				</port>
			</input>
			<output>
				<port id="1" precision="FP16">
					<dim>51865</dim>
					<dim>1</dim>
				</port>
			</output>
		</layer>
		<layer id="213" name="self.model.model.decoder.embed_tokens.weight/zero_point/subtract" type="Subtract" version="opset1">
			<data auto_broadcast="numpy" />
			<input>
				<port id="0" precision="FP16">
					<dim>51865</dim>
					<dim>512</dim>
				</port>
				<port id="1" precision="FP16">
					<dim>51865</dim>
					<dim>1</dim>
				</port>
			</input>
			<output>
				<port id="2" precision="FP16">
					<dim>51865</dim>
					<dim>512</dim>
				</port>
			</output>
		</layer>
		<layer id="214" name="self.model.model.decoder.embed_tokens.weight/scale" type="Const" version="opset1">
			<data element_type="f16" shape="51865, 1" offset="29783269" size="103730" />
			<output>
				<port id="0" precision="FP16">
					<dim>51865</dim>
					<dim>1</dim>
				</port>
			</output>
		</layer>
		<layer id="215" name="self.model.model.decoder.embed_tokens.weight/fq_weights_0" type="Multiply" version="opset1">
			<data auto_broadcast="numpy" />
			<input>
				<port id="0" precision="FP16">
					<dim>51865</dim>
					<dim>512</dim>
				</port>
				<port id="1" precision="FP16">
					<dim>51865</dim>
					<dim>1</dim>
				</port>
			</input>
			<output>
				<port id="2" precision="FP16">
					<dim>51865</dim>
					<dim>512</dim>
				</port>
			</output>
		</layer>
		<layer id="216" name="self.model.model.decoder.embed_tokens.weight/fq_weights_0/convert" type="Convert" version="opset1">
			<data destination_type="f32" />
			<input>
				<port id="0" precision="FP16">
					<dim>51865</dim>
					<dim>512</dim>
				</port>
			</input>
			<output>
				<port id="1" precision="FP32">
					<dim>51865</dim>
					<dim>512</dim>
				</port>
			</output>
		</layer>
		<layer id="217" name="__module.model.model.decoder/prim::ListConstruct" type="Const" version="opset1">
			<data element_type="i64" shape="2" offset="29886999" size="16" />
			<output>
				<port id="0" precision="I64">
					<dim>2</dim>
				</port>
			</output>
		</layer>
		<layer id="218" name="__module.model.model.decoder/aten::view/Reshape" type="Reshape" version="opset1">
			<data special_zero="true" />
			<input>
				<port id="0" precision="I64">
					<dim>-1</dim>
					<dim>-1</dim>
				</port>
				<port id="1" precision="I64">
					<dim>2</dim>
				</port>
			</input>
			<output>
				<port id="2" precision="I64" names="109,input.1">
					<dim>-1</dim>
					<dim>-1</dim>
				</port>
			</output>
		</layer>
		<layer id="219" name="__module.model.model.decoder.embed_tokens/aten::embedding/Convert" type="Convert" version="opset1">
			<data destination_type="i32" />
			<input>
				<port id="0" precision="I64">
					<dim>-1</dim>
					<dim>-1</dim>
				</port>
			</input>
			<output>
				<port id="1" precision="I32">
					<dim>-1</dim>
					<dim>-1</dim>
				</port>
			</output>
		</layer>
		<layer id="220" name="__module.model.model.decoder.embed_tokens/aten::embedding/Constant" type="Const" version="opset1">
			<data element_type="i32" shape="" offset="3176496" size="4" />
			<output>
				<port id="0" precision="I32" />
			</output>
		</layer>
		<layer id="221" name="__module.model.model.decoder.embed_tokens/aten::embedding/Gather" type="Gather" version="opset8">
			<data batch_dims="0" />
			<input>
				<port id="0" precision="FP32">
					<dim>51865</dim>
					<dim>512</dim>
				</port>
				<port id="1" precision="I32">
					<dim>-1</dim>
					<dim>-1</dim>
				</port>
				<port id="2" precision="I32" />
			</input>
			<output>
				<port id="3" precision="FP32" names="111,inputs_embeds">
					<dim>-1</dim>
					<dim>-1</dim>
					<dim>512</dim>
				</port>
			</output>
		</layer>
		<layer id="222" name="self.model.model.decoder.embed_positions.weight" type="Const" version="opset1">
			<data element_type="u8" shape="448, 512" offset="29887015" size="229376" />
			<output>
				<port id="0" precision="U8">
					<dim>448</dim>
					<dim>512</dim>
				</port>
			</output>
		</layer>
		<layer id="223" name="Convert_420366" type="Convert" version="opset1">
			<data destination_type="f16" />
			<input>
				<port id="0" precision="U8">
					<dim>448</dim>
					<dim>512</dim>
				</port>
			</input>
			<output>
				<port id="1" precision="FP16">
					<dim>448</dim>
					<dim>512</dim>
				</port>
			</output>
		</layer>
		<layer id="224" name="self.model.model.decoder.embed_positions.weight/zero_point" type="Const" version="opset1">
			<data element_type="u8" shape="448, 1" offset="30116391" size="448" />
			<output>
				<port id="0" precision="U8">
					<dim>448</dim>
					<dim>1</dim>
				</port>
			</output>
		</layer>
		<layer id="225" name="Convert_420369" type="Convert" version="opset1">
			<data destination_type="f16" />
			<input>
				<port id="0" precision="U8">
					<dim>448</dim>
					<dim>1</dim>
				</port>
			</input>
			<output>
				<port id="1" precision="FP16">
					<dim>448</dim>
					<dim>1</dim>
				</port>
			</output>
		</layer>
		<layer id="226" name="self.model.model.decoder.embed_positions.weight/zero_point/subtract" type="Subtract" version="opset1">
			<data auto_broadcast="numpy" />
			<input>
				<port id="0" precision="FP16">
					<dim>448</dim>
					<dim>512</dim>
				</port>
				<port id="1" precision="FP16">
					<dim>448</dim>
					<dim>1</dim>
				</port>
			</input>
			<output>
				<port id="2" precision="FP16">
					<dim>448</dim>
					<dim>512</dim>
				</port>
			</output>
		</layer>
		<layer id="227" name="self.model.model.decoder.embed_positions.weight/scale" type="Const" version="opset1">
			<data element_type="f16" shape="448, 1" offset="30116839" size="896" />
			<output>
				<port id="0" precision="FP16">
					<dim>448</dim>
					<dim>1</dim>
				</port>
			</output>
		</layer>
		<layer id="228" name="self.model.model.decoder.embed_positions.weight/fq_weights_0" type="Multiply" version="opset1">
			<data auto_broadcast="numpy" />
			<input>
				<port id="0" precision="FP16">
					<dim>448</dim>
					<dim>512</dim>
				</port>
				<port id="1" precision="FP16">
					<dim>448</dim>
					<dim>1</dim>
				</port>
			</input>
			<output>
				<port id="2" precision="FP16">
					<dim>448</dim>
					<dim>512</dim>
				</port>
			</output>
		</layer>
		<layer id="229" name="self.model.model.decoder.embed_positions.weight/fq_weights_0/convert" type="Convert" version="opset1">
			<data destination_type="f32" />
			<input>
				<port id="0" precision="FP16">
					<dim>448</dim>
					<dim>512</dim>
				</port>
			</input>
			<output>
				<port id="1" precision="FP32">
					<dim>448</dim>
					<dim>512</dim>
				</port>
			</output>
		</layer>
		<layer id="230" name="77" type="Const" version="opset1">
			<data element_type="i64" shape="" offset="3176500" size="8" />
			<output>
				<port id="0" precision="I64" names="77" />
			</output>
		</layer>
		<layer id="231" name="__module.model.model.decoder/aten::unsqueeze/Unsqueeze" type="Unsqueeze" version="opset1">
			<input>
				<port id="0" precision="I64">
					<dim>-1</dim>
				</port>
				<port id="1" precision="I64" />
			</input>
			<output>
				<port id="2" precision="I64" names="112">
					<dim>1</dim>
					<dim>-1</dim>
				</port>
			</output>
		</layer>
		<layer id="232" name="ShapeOf_18407" type="ShapeOf" version="opset3">
			<data output_type="i64" />
			<input>
				<port id="0" precision="I64">
					<dim>-1</dim>
					<dim>-1</dim>
				</port>
			</input>
			<output>
				<port id="1" precision="I64">
					<dim>2</dim>
				</port>
			</output>
		</layer>
		<layer id="233" name="Constant_18408" type="Const" version="opset1">
			<data element_type="i64" shape="1" offset="3176500" size="8" />
			<output>
				<port id="0" precision="I64">
					<dim>1</dim>
				</port>
			</output>
		</layer>
		<layer id="234" name="Constant_18409" type="Const" version="opset1">
			<data element_type="i64" shape="" offset="3176500" size="8" />
			<output>
				<port id="0" precision="I64" />
			</output>
		</layer>
		<layer id="235" name="Gather_18410" type="Gather" version="opset8">
			<data batch_dims="0" />
			<input>
				<port id="0" precision="I64">
					<dim>2</dim>
				</port>
				<port id="1" precision="I64">
					<dim>1</dim>
				</port>
				<port id="2" precision="I64" />
			</input>
			<output>
				<port id="3" precision="I64" names="106,129,158,213,277,329,393,445,509,561,625,677,741,793">
					<dim>1</dim>
				</port>
			</output>
		</layer>
		<layer id="236" name="Constant_9937" type="Const" version="opset1">
			<data element_type="i64" shape="1" offset="30117735" size="8" />
			<output>
				<port id="0" precision="I64">
					<dim>1</dim>
				</port>
			</output>
		</layer>
		<layer id="237" name="__module.model.model.decoder/prim::ListConstruct/Concat" type="Concat" version="opset1">
			<data axis="0" />
			<input>
				<port id="0" precision="I64">
					<dim>1</dim>
				</port>
				<port id="1" precision="I64">
					<dim>1</dim>
				</port>
			</input>
			<output>
				<port id="2" precision="I64" names="113">
					<dim>2</dim>
				</port>
			</output>
		</layer>
		<layer id="238" name="__module.model.model.decoder/aten::repeat/Tile" type="Tile" version="opset1">
			<input>
				<port id="0" precision="I64">
					<dim>1</dim>
					<dim>-1</dim>
				</port>
				<port id="1" precision="I64">
					<dim>2</dim>
				</port>
			</input>
			<output>
				<port id="2" precision="I64" names="114,position_ids">
					<dim>-1</dim>
					<dim>-1</dim>
				</port>
			</output>
		</layer>
		<layer id="239" name="__module.model.model.decoder.embed_positions/aten::index/Convert" type="Convert" version="opset1">
			<data destination_type="i32" />
			<input>
				<port id="0" precision="I64">
					<dim>-1</dim>
					<dim>-1</dim>
				</port>
			</input>
			<output>
				<port id="1" precision="I32">
					<dim>-1</dim>
					<dim>-1</dim>
				</port>
			</output>
		</layer>
		<layer id="240" name="__module.model.model.decoder.embed_positions/aten::index/Constant" type="Const" version="opset1">
			<data element_type="i32" shape="" offset="3176496" size="4" />
			<output>
				<port id="0" precision="I32" />
			</output>
		</layer>
		<layer id="241" name="__module.model.model.decoder.embed_positions/aten::index/Gather" type="Gather" version="opset8">
			<data batch_dims="0" />
			<input>
				<port id="0" precision="FP32">
					<dim>448</dim>
					<dim>512</dim>
				</port>
				<port id="1" precision="I32">
					<dim>-1</dim>
					<dim>-1</dim>
				</port>
				<port id="2" precision="I32" />
			</input>
			<output>
				<port id="3" precision="FP32" names="117,118,positions,positions.1">
					<dim>-1</dim>
					<dim>-1</dim>
					<dim>512</dim>
				</port>
			</output>
		</layer>
		<layer id="242" name="__module.model.model.decoder/aten::add/Add" type="Add" version="opset1">
			<data auto_broadcast="numpy" />
			<input>
				<port id="0" precision="FP32">
					<dim>-1</dim>
					<dim>-1</dim>
					<dim>512</dim>
				</port>
				<port id="1" precision="FP32">
					<dim>-1</dim>
					<dim>-1</dim>
					<dim>512</dim>
				</port>
			</input>
			<output>
				<port id="2" precision="FP32" names="119,input.3">
					<dim>-1</dim>
					<dim>-1</dim>
					<dim>512</dim>
				</port>
			</output>
		</layer>
		<layer id="243" name="__module.model.model.decoder.layers.0.self_attn_layer_norm/aten::layer_norm/Multiply" type="Const" version="opset1">
			<data element_type="i32" shape="1" offset="30117743" size="4" />
			<output>
				<port id="0" precision="I32">
					<dim>1</dim>
				</port>
			</output>
		</layer>
		<layer id="244" name="__module.model.model.decoder.layers.0.self_attn_layer_norm/aten::layer_norm/MVN" type="MVN" version="opset6">
			<data eps="9.9999997473787516e-06" normalize_variance="true" eps_mode="INSIDE_SQRT" />
			<input>
				<port id="0" precision="FP32">
					<dim>-1</dim>
					<dim>-1</dim>
					<dim>512</dim>
				</port>
				<port id="1" precision="I32">
					<dim>1</dim>
				</port>
			</input>
			<output>
				<port id="2" precision="FP32">
					<dim>-1</dim>
					<dim>-1</dim>
					<dim>512</dim>
				</port>
			</output>
		</layer>
		<layer id="245" name="Constant_17832" type="Const" version="opset1">
			<data element_type="f32" shape="1, 1, 512" offset="30117747" size="2048" />
			<output>
				<port id="0" precision="FP32">
					<dim>1</dim>
					<dim>1</dim>
					<dim>512</dim>
				</port>
			</output>
		</layer>
		<layer id="246" name="__module.model.model.decoder.layers.0.self_attn_layer_norm/aten::layer_norm/Multiply_1" type="Multiply" version="opset1">
			<data auto_broadcast="numpy" />
			<input>
				<port id="0" precision="FP32">
					<dim>-1</dim>
					<dim>-1</dim>
					<dim>512</dim>
				</port>
				<port id="1" precision="FP32">
					<dim>1</dim>
					<dim>1</dim>
					<dim>512</dim>
				</port>
			</input>
			<output>
				<port id="2" precision="FP32">
					<dim>-1</dim>
					<dim>-1</dim>
					<dim>512</dim>
				</port>
			</output>
		</layer>
		<layer id="247" name="Constant_17833" type="Const" version="opset1">
			<data element_type="f32" shape="1, 1, 512" offset="30119795" size="2048" />
			<output>
				<port id="0" precision="FP32">
					<dim>1</dim>
					<dim>1</dim>
					<dim>512</dim>
				</port>
			</output>
		</layer>
		<layer id="248" name="__module.model.model.decoder.layers.0.self_attn_layer_norm/aten::layer_norm/Add" type="Add" version="opset1">
			<data auto_broadcast="numpy" />
			<input>
				<port id="0" precision="FP32">
					<dim>-1</dim>
					<dim>-1</dim>
					<dim>512</dim>
				</port>
				<port id="1" precision="FP32">
					<dim>1</dim>
					<dim>1</dim>
					<dim>512</dim>
				</port>
			</input>
			<output>
				<port id="2" precision="FP32" names="153,hidden_states.1">
					<dim>-1</dim>
					<dim>-1</dim>
					<dim>512</dim>
				</port>
			</output>
		</layer>
		<layer id="249" name="self.model.model.decoder.layers.0.self_attn.q_proj.weight" type="Const" version="opset1">
			<data element_type="u8" shape="512, 512" offset="30121843" size="262144" />
			<output>
				<port id="0" precision="U8">
					<dim>512</dim>
					<dim>512</dim>
				</port>
			</output>
		</layer>
		<layer id="250" name="Convert_286644" type="Convert" version="opset1">
			<data destination_type="f16" />
			<input>
				<port id="0" precision="U8">
					<dim>512</dim>
					<dim>512</dim>
				</port>
			</input>
			<output>
				<port id="1" precision="FP16">
					<dim>512</dim>
					<dim>512</dim>
				</port>
			</output>
		</layer>
		<layer id="251" name="self.model.model.decoder.layers.0.self_attn.q_proj.weight/zero_point" type="Const" version="opset1">
			<data element_type="u8" shape="512, 1" offset="30383987" size="512" />
			<output>
				<port id="0" precision="U8">
					<dim>512</dim>
					<dim>1</dim>
				</port>
			</output>
		</layer>
		<layer id="252" name="Convert_286647" type="Convert" version="opset1">
			<data destination_type="f16" />
			<input>
				<port id="0" precision="U8">
					<dim>512</dim>
					<dim>1</dim>
				</port>
			</input>
			<output>
				<port id="1" precision="FP16">
					<dim>512</dim>
					<dim>1</dim>
				</port>
			</output>
		</layer>
		<layer id="253" name="self.model.model.decoder.layers.0.self_attn.q_proj.weight/zero_point/subtract" type="Subtract" version="opset1">
			<data auto_broadcast="numpy" />
			<input>
				<port id="0" precision="FP16">
					<dim>512</dim>
					<dim>512</dim>
				</port>
				<port id="1" precision="FP16">
					<dim>512</dim>
					<dim>1</dim>
				</port>
			</input>
			<output>
				<port id="2" precision="FP16">
					<dim>512</dim>
					<dim>512</dim>
				</port>
			</output>
		</layer>
		<layer id="254" name="self.model.model.decoder.layers.0.self_attn.q_proj.weight/scale" type="Const" version="opset1">
			<data element_type="f16" shape="512, 1" offset="30384499" size="1024" />
			<output>
				<port id="0" precision="FP16">
					<dim>512</dim>
					<dim>1</dim>
				</port>
			</output>
		</layer>
		<layer id="255" name="self.model.model.decoder.layers.0.self_attn.q_proj.weight/fq_weights_1" type="Multiply" version="opset1">
			<data auto_broadcast="numpy" />
			<input>
				<port id="0" precision="FP16">
					<dim>512</dim>
					<dim>512</dim>
				</port>
				<port id="1" precision="FP16">
					<dim>512</dim>
					<dim>1</dim>
				</port>
			</input>
			<output>
				<port id="2" precision="FP16">
					<dim>512</dim>
					<dim>512</dim>
				</port>
			</output>
		</layer>
		<layer id="256" name="self.model.model.decoder.layers.0.self_attn.q_proj.weight/fq_weights_1/convert" type="Convert" version="opset1">
			<data destination_type="f32" />
			<input>
				<port id="0" precision="FP16">
					<dim>512</dim>
					<dim>512</dim>
				</port>
			</input>
			<output>
				<port id="1" precision="FP32">
					<dim>512</dim>
					<dim>512</dim>
				</port>
			</output>
		</layer>
		<layer id="257" name="__module.model.model.decoder.layers.0.self_attn.q_proj/aten::linear/MatMul" type="MatMul" version="opset1">
			<data transpose_a="false" transpose_b="true" />
			<input>
				<port id="0" precision="FP32">
					<dim>-1</dim>
					<dim>-1</dim>
					<dim>512</dim>
				</port>
				<port id="1" precision="FP32">
					<dim>512</dim>
					<dim>512</dim>
				</port>
			</input>
			<output>
				<port id="2" precision="FP32">
					<dim>-1</dim>
					<dim>-1</dim>
					<dim>512</dim>
				</port>
			</output>
		</layer>
		<layer id="258" name="Constant_17834" type="Const" version="opset1">
			<data element_type="f32" shape="1, 1, 512" offset="30385523" size="2048" />
			<output>
				<port id="0" precision="FP32">
					<dim>1</dim>
					<dim>1</dim>
					<dim>512</dim>
				</port>
			</output>
		</layer>
		<layer id="259" name="__module.model.model.decoder.layers.0.self_attn.q_proj/aten::linear/Add" type="Add" version="opset1">
			<data auto_broadcast="numpy" />
			<input>
				<port id="0" precision="FP32">
					<dim>-1</dim>
					<dim>-1</dim>
					<dim>512</dim>
				</port>
				<port id="1" precision="FP32">
					<dim>1</dim>
					<dim>1</dim>
					<dim>512</dim>
				</port>
			</input>
			<output>
				<port id="2" precision="FP32" names="162">
					<dim>-1</dim>
					<dim>-1</dim>
					<dim>512</dim>
				</port>
			</output>
		</layer>
		<layer id="260" name="Constant_18993" type="Const" version="opset1">
			<data element_type="i64" shape="4" offset="263680" size="32" />
			<output>
				<port id="0" precision="I64">
					<dim>4</dim>
				</port>
			</output>
		</layer>
		<layer id="261" name="__module.model.model.decoder.layers.0.self_attn/aten::view/Reshape" type="Reshape" version="opset1">
			<data special_zero="true" />
			<input>
				<port id="0" precision="FP32">
					<dim>-1</dim>
					<dim>-1</dim>
					<dim>512</dim>
				</port>
				<port id="1" precision="I64">
					<dim>4</dim>
				</port>
			</input>
			<output>
				<port id="2" precision="FP32" names="164,query_states.1">
					<dim>-1</dim>
					<dim>-1</dim>
					<dim>8</dim>
					<dim>64</dim>
				</port>
			</output>
		</layer>
		<layer id="262" name="__module.model.model.decoder.layers.0.self_attn/aten::transpose/Constant" type="Const" version="opset1">
			<data element_type="i32" shape="4" offset="263712" size="16" />
			<output>
				<port id="0" precision="I32">
					<dim>4</dim>
				</port>
			</output>
		</layer>
		<layer id="263" name="__module.model.model.decoder.layers.0.self_attn/aten::transpose/Transpose" type="Transpose" version="opset1">
			<input>
				<port id="0" precision="FP32">
					<dim>-1</dim>
					<dim>-1</dim>
					<dim>8</dim>
					<dim>64</dim>
				</port>
				<port id="1" precision="I32">
					<dim>4</dim>
				</port>
			</input>
			<output>
				<port id="2" precision="FP32" names="165">
					<dim>-1</dim>
					<dim>8</dim>
					<dim>-1</dim>
					<dim>64</dim>
				</port>
			</output>
		</layer>
		<layer id="264" name="Constant_21217" type="Const" version="opset1">
			<data element_type="f32" shape="" offset="3176496" size="4" />
			<output>
				<port id="0" precision="FP32" />
			</output>
		</layer>
		<layer id="265" name="Constant_21210" type="Const" version="opset1">
			<data element_type="i64" shape="1" offset="3176508" size="8" />
			<output>
				<port id="0" precision="I64">
					<dim>1</dim>
				</port>
			</output>
		</layer>
		<layer id="266" name="Constant_21212" type="Const" version="opset1">
			<data element_type="i64" shape="1" offset="3176500" size="8" />
			<output>
				<port id="0" precision="I64">
					<dim>1</dim>
				</port>
			</output>
		</layer>
		<layer id="267" name="Constant_21214" type="Const" version="opset1">
			<data element_type="i64" shape="1" offset="3176516" size="8" />
			<output>
				<port id="0" precision="I64">
					<dim>1</dim>
				</port>
			</output>
		</layer>
		<layer id="268" name="Concat_21215" type="Concat" version="opset1">
			<data axis="0" />
			<input>
				<port id="0" precision="I64">
					<dim>1</dim>
				</port>
				<port id="1" precision="I64">
					<dim>1</dim>
				</port>
				<port id="2" precision="I64">
					<dim>1</dim>
				</port>
				<port id="3" precision="I64">
					<dim>1</dim>
				</port>
			</input>
			<output>
				<port id="4" precision="I64">
					<dim>4</dim>
				</port>
			</output>
		</layer>
		<layer id="269" name="Broadcast_21218" type="Broadcast" version="opset3">
			<data mode="numpy" />
			<input>
				<port id="0" precision="FP32" />
				<port id="1" precision="I64">
					<dim>4</dim>
				</port>
			</input>
			<output>
				<port id="2" precision="FP32">
					<dim>-1</dim>
					<dim>8</dim>
					<dim>0</dim>
					<dim>64</dim>
				</port>
			</output>
		</layer>
		<layer id="270" name="ReadValue_20773" type="ReadValue" version="opset6">
			<data variable_id="past_key_values.0.decoder.keypresent.0.decoder.key" variable_type="f32" variable_shape="?,8,?,64" />
			<input>
				<port id="0" precision="FP32">
					<dim>-1</dim>
					<dim>8</dim>
					<dim>0</dim>
					<dim>64</dim>
				</port>
			</input>
			<output>
				<port id="1" precision="FP32" names="past_key_values.0.decoder.key">
					<dim>-1</dim>
					<dim>8</dim>
					<dim>-1</dim>
					<dim>64</dim>
				</port>
			</output>
		</layer>
		<layer id="271" name="Constant_20344" type="Const" version="opset1">
			<data element_type="i64" shape="" offset="3176500" size="8" />
			<output>
				<port id="0" precision="I64" />
			</output>
		</layer>
		<layer id="272" name="Gather_20345" type="Gather" version="opset8">
			<data batch_dims="0" />
			<input>
				<port id="0" precision="FP32">
					<dim>-1</dim>
					<dim>8</dim>
					<dim>-1</dim>
					<dim>64</dim>
				</port>
				<port id="1" precision="I32">
					<dim>-1</dim>
				</port>
				<port id="2" precision="I64" />
			</input>
			<output>
				<port id="3" precision="FP32">
					<dim>-1</dim>
					<dim>8</dim>
					<dim>-1</dim>
					<dim>64</dim>
				</port>
			</output>
		</layer>
		<layer id="273" name="self.model.model.decoder.layers.0.self_attn.k_proj.weight" type="Const" version="opset1">
			<data element_type="u8" shape="512, 512" offset="30387571" size="262144" />
			<output>
				<port id="0" precision="U8">
					<dim>512</dim>
					<dim>512</dim>
				</port>
			</output>
		</layer>
		<layer id="274" name="Convert_282711" type="Convert" version="opset1">
			<data destination_type="f16" />
			<input>
				<port id="0" precision="U8">
					<dim>512</dim>
					<dim>512</dim>
				</port>
			</input>
			<output>
				<port id="1" precision="FP16">
					<dim>512</dim>
					<dim>512</dim>
				</port>
			</output>
		</layer>
		<layer id="275" name="self.model.model.decoder.layers.0.self_attn.k_proj.weight/zero_point" type="Const" version="opset1">
			<data element_type="u8" shape="512, 1" offset="30649715" size="512" />
			<output>
				<port id="0" precision="U8">
					<dim>512</dim>
					<dim>1</dim>
				</port>
			</output>
		</layer>
		<layer id="276" name="Convert_282714" type="Convert" version="opset1">
			<data destination_type="f16" />
			<input>
				<port id="0" precision="U8">
					<dim>512</dim>
					<dim>1</dim>
				</port>
			</input>
			<output>
				<port id="1" precision="FP16">
					<dim>512</dim>
					<dim>1</dim>
				</port>
			</output>
		</layer>
		<layer id="277" name="self.model.model.decoder.layers.0.self_attn.k_proj.weight/zero_point/subtract" type="Subtract" version="opset1">
			<data auto_broadcast="numpy" />
			<input>
				<port id="0" precision="FP16">
					<dim>512</dim>
					<dim>512</dim>
				</port>
				<port id="1" precision="FP16">
					<dim>512</dim>
					<dim>1</dim>
				</port>
			</input>
			<output>
				<port id="2" precision="FP16">
					<dim>512</dim>
					<dim>512</dim>
				</port>
			</output>
		</layer>
		<layer id="278" name="self.model.model.decoder.layers.0.self_attn.k_proj.weight/scale" type="Const" version="opset1">
			<data element_type="f16" shape="512, 1" offset="30650227" size="1024" />
			<output>
				<port id="0" precision="FP16">
					<dim>512</dim>
					<dim>1</dim>
				</port>
			</output>
		</layer>
		<layer id="279" name="self.model.model.decoder.layers.0.self_attn.k_proj.weight/fq_weights_1" type="Multiply" version="opset1">
			<data auto_broadcast="numpy" />
			<input>
				<port id="0" precision="FP16">
					<dim>512</dim>
					<dim>512</dim>
				</port>
				<port id="1" precision="FP16">
					<dim>512</dim>
					<dim>1</dim>
				</port>
			</input>
			<output>
				<port id="2" precision="FP16">
					<dim>512</dim>
					<dim>512</dim>
				</port>
			</output>
		</layer>
		<layer id="280" name="self.model.model.decoder.layers.0.self_attn.k_proj.weight/fq_weights_1/convert" type="Convert" version="opset1">
			<data destination_type="f32" />
			<input>
				<port id="0" precision="FP16">
					<dim>512</dim>
					<dim>512</dim>
				</port>
			</input>
			<output>
				<port id="1" precision="FP32">
					<dim>512</dim>
					<dim>512</dim>
				</port>
			</output>
		</layer>
		<layer id="281" name="__module.model.model.decoder.layers.0.self_attn.k_proj/aten::linear/MatMul" type="MatMul" version="opset1">
			<data transpose_a="false" transpose_b="true" />
			<input>
				<port id="0" precision="FP32">
					<dim>-1</dim>
					<dim>-1</dim>
					<dim>512</dim>
				</port>
				<port id="1" precision="FP32">
					<dim>512</dim>
					<dim>512</dim>
				</port>
			</input>
			<output>
				<port id="2" precision="FP32" names="168">
					<dim>-1</dim>
					<dim>-1</dim>
					<dim>512</dim>
				</port>
			</output>
		</layer>
		<layer id="282" name="Constant_18994" type="Const" version="opset1">
			<data element_type="i64" shape="4" offset="263680" size="32" />
			<output>
				<port id="0" precision="I64">
					<dim>4</dim>
				</port>
			</output>
		</layer>
		<layer id="283" name="__module.model.model.decoder.layers.0.self_attn/aten::view/Reshape_1" type="Reshape" version="opset1">
			<data special_zero="true" />
			<input>
				<port id="0" precision="FP32">
					<dim>-1</dim>
					<dim>-1</dim>
					<dim>512</dim>
				</port>
				<port id="1" precision="I64">
					<dim>4</dim>
				</port>
			</input>
			<output>
				<port id="2" precision="FP32" names="170,key_states.5">
					<dim>-1</dim>
					<dim>-1</dim>
					<dim>8</dim>
					<dim>64</dim>
				</port>
			</output>
		</layer>
		<layer id="284" name="__module.model.model.decoder.layers.0.self_attn/aten::transpose/Constant_1" type="Const" version="opset1">
			<data element_type="i32" shape="4" offset="263712" size="16" />
			<output>
				<port id="0" precision="I32">
					<dim>4</dim>
				</port>
			</output>
		</layer>
		<layer id="285" name="__module.model.model.decoder.layers.0.self_attn/aten::transpose/Transpose_1" type="Transpose" version="opset1">
			<input>
				<port id="0" precision="FP32">
					<dim>-1</dim>
					<dim>-1</dim>
					<dim>8</dim>
					<dim>64</dim>
				</port>
				<port id="1" precision="I32">
					<dim>4</dim>
				</port>
			</input>
			<output>
				<port id="2" precision="FP32" names="176">
					<dim>-1</dim>
					<dim>8</dim>
					<dim>-1</dim>
					<dim>64</dim>
				</port>
			</output>
		</layer>
		<layer id="286" name="__module.model.model.decoder.layers.0.self_attn/aten::cat/Concat" type="Concat" version="opset1">
			<data axis="-2" />
			<input>
				<port id="0" precision="FP32">
					<dim>-1</dim>
					<dim>8</dim>
					<dim>-1</dim>
					<dim>64</dim>
				</port>
				<port id="1" precision="FP32">
					<dim>-1</dim>
					<dim>8</dim>
					<dim>-1</dim>
					<dim>64</dim>
				</port>
			</input>
			<output>
				<port id="2" precision="FP32" names="key_states.9">
					<dim>-1</dim>
					<dim>8</dim>
					<dim>-1</dim>
					<dim>64</dim>
				</port>
			</output>
		</layer>
		<layer id="287" name="Constant_21229" type="Const" version="opset1">
			<data element_type="f32" shape="" offset="3176496" size="4" />
			<output>
				<port id="0" precision="FP32" />
			</output>
		</layer>
		<layer id="288" name="Constant_21222" type="Const" version="opset1">
			<data element_type="i64" shape="1" offset="3176508" size="8" />
			<output>
				<port id="0" precision="I64">
					<dim>1</dim>
				</port>
			</output>
		</layer>
		<layer id="289" name="Constant_21224" type="Const" version="opset1">
			<data element_type="i64" shape="1" offset="3176500" size="8" />
			<output>
				<port id="0" precision="I64">
					<dim>1</dim>
				</port>
			</output>
		</layer>
		<layer id="290" name="Constant_21226" type="Const" version="opset1">
			<data element_type="i64" shape="1" offset="3176516" size="8" />
			<output>
				<port id="0" precision="I64">
					<dim>1</dim>
				</port>
			</output>
		</layer>
		<layer id="291" name="Concat_21227" type="Concat" version="opset1">
			<data axis="0" />
			<input>
				<port id="0" precision="I64">
					<dim>1</dim>
				</port>
				<port id="1" precision="I64">
					<dim>1</dim>
				</port>
				<port id="2" precision="I64">
					<dim>1</dim>
				</port>
				<port id="3" precision="I64">
					<dim>1</dim>
				</port>
			</input>
			<output>
				<port id="4" precision="I64">
					<dim>4</dim>
				</port>
			</output>
		</layer>
		<layer id="292" name="Broadcast_21230" type="Broadcast" version="opset3">
			<data mode="numpy" />
			<input>
				<port id="0" precision="FP32" />
				<port id="1" precision="I64">
					<dim>4</dim>
				</port>
			</input>
			<output>
				<port id="2" precision="FP32">
					<dim>-1</dim>
					<dim>8</dim>
					<dim>0</dim>
					<dim>64</dim>
				</port>
			</output>
		</layer>
		<layer id="293" name="ReadValue_20775" type="ReadValue" version="opset6">
			<data variable_id="past_key_values.0.decoder.valuepresent.0.decoder.value" variable_type="f32" variable_shape="?,8,?,64" />
			<input>
				<port id="0" precision="FP32">
					<dim>-1</dim>
					<dim>8</dim>
					<dim>0</dim>
					<dim>64</dim>
				</port>
			</input>
			<output>
				<port id="1" precision="FP32" names="past_key_values.0.decoder.value">
					<dim>-1</dim>
					<dim>8</dim>
					<dim>-1</dim>
					<dim>64</dim>
				</port>
			</output>
		</layer>
		<layer id="294" name="Constant_20347" type="Const" version="opset1">
			<data element_type="i64" shape="" offset="3176500" size="8" />
			<output>
				<port id="0" precision="I64" />
			</output>
		</layer>
		<layer id="295" name="Gather_20348" type="Gather" version="opset8">
			<data batch_dims="0" />
			<input>
				<port id="0" precision="FP32">
					<dim>-1</dim>
					<dim>8</dim>
					<dim>-1</dim>
					<dim>64</dim>
				</port>
				<port id="1" precision="I32">
					<dim>-1</dim>
				</port>
				<port id="2" precision="I64" />
			</input>
			<output>
				<port id="3" precision="FP32">
					<dim>-1</dim>
					<dim>8</dim>
					<dim>-1</dim>
					<dim>64</dim>
				</port>
			</output>
		</layer>
		<layer id="296" name="self.model.model.decoder.layers.0.self_attn.v_proj.weight" type="Const" version="opset1">
			<data element_type="u8" shape="512, 512" offset="30651251" size="262144" />
			<output>
				<port id="0" precision="U8">
					<dim>512</dim>
					<dim>512</dim>
				</port>
			</output>
		</layer>
		<layer id="297" name="Convert_278778" type="Convert" version="opset1">
			<data destination_type="f16" />
			<input>
				<port id="0" precision="U8">
					<dim>512</dim>
					<dim>512</dim>
				</port>
			</input>
			<output>
				<port id="1" precision="FP16">
					<dim>512</dim>
					<dim>512</dim>
				</port>
			</output>
		</layer>
		<layer id="298" name="self.model.model.decoder.layers.0.self_attn.v_proj.weight/zero_point" type="Const" version="opset1">
			<data element_type="u8" shape="512, 1" offset="30913395" size="512" />
			<output>
				<port id="0" precision="U8">
					<dim>512</dim>
					<dim>1</dim>
				</port>
			</output>
		</layer>
		<layer id="299" name="Convert_278781" type="Convert" version="opset1">
			<data destination_type="f16" />
			<input>
				<port id="0" precision="U8">
					<dim>512</dim>
					<dim>1</dim>
				</port>
			</input>
			<output>
				<port id="1" precision="FP16">
					<dim>512</dim>
					<dim>1</dim>
				</port>
			</output>
		</layer>
		<layer id="300" name="self.model.model.decoder.layers.0.self_attn.v_proj.weight/zero_point/subtract" type="Subtract" version="opset1">
			<data auto_broadcast="numpy" />
			<input>
				<port id="0" precision="FP16">
					<dim>512</dim>
					<dim>512</dim>
				</port>
				<port id="1" precision="FP16">
					<dim>512</dim>
					<dim>1</dim>
				</port>
			</input>
			<output>
				<port id="2" precision="FP16">
					<dim>512</dim>
					<dim>512</dim>
				</port>
			</output>
		</layer>
		<layer id="301" name="self.model.model.decoder.layers.0.self_attn.v_proj.weight/scale" type="Const" version="opset1">
			<data element_type="f16" shape="512, 1" offset="30913907" size="1024" />
			<output>
				<port id="0" precision="FP16">
					<dim>512</dim>
					<dim>1</dim>
				</port>
			</output>
		</layer>
		<layer id="302" name="self.model.model.decoder.layers.0.self_attn.v_proj.weight/fq_weights_1" type="Multiply" version="opset1">
			<data auto_broadcast="numpy" />
			<input>
				<port id="0" precision="FP16">
					<dim>512</dim>
					<dim>512</dim>
				</port>
				<port id="1" precision="FP16">
					<dim>512</dim>
					<dim>1</dim>
				</port>
			</input>
			<output>
				<port id="2" precision="FP16">
					<dim>512</dim>
					<dim>512</dim>
				</port>
			</output>
		</layer>
		<layer id="303" name="self.model.model.decoder.layers.0.self_attn.v_proj.weight/fq_weights_1/convert" type="Convert" version="opset1">
			<data destination_type="f32" />
			<input>
				<port id="0" precision="FP16">
					<dim>512</dim>
					<dim>512</dim>
				</port>
			</input>
			<output>
				<port id="1" precision="FP32">
					<dim>512</dim>
					<dim>512</dim>
				</port>
			</output>
		</layer>
		<layer id="304" name="__module.model.model.decoder.layers.0.self_attn.v_proj/aten::linear/MatMul" type="MatMul" version="opset1">
			<data transpose_a="false" transpose_b="true" />
			<input>
				<port id="0" precision="FP32">
					<dim>-1</dim>
					<dim>-1</dim>
					<dim>512</dim>
				</port>
				<port id="1" precision="FP32">
					<dim>512</dim>
					<dim>512</dim>
				</port>
			</input>
			<output>
				<port id="2" precision="FP32">
					<dim>-1</dim>
					<dim>-1</dim>
					<dim>512</dim>
				</port>
			</output>
		</layer>
		<layer id="305" name="Constant_17835" type="Const" version="opset1">
			<data element_type="f32" shape="1, 1, 512" offset="30914931" size="2048" />
			<output>
				<port id="0" precision="FP32">
					<dim>1</dim>
					<dim>1</dim>
					<dim>512</dim>
				</port>
			</output>
		</layer>
		<layer id="306" name="__module.model.model.decoder.layers.0.self_attn.v_proj/aten::linear/Add" type="Add" version="opset1">
			<data auto_broadcast="numpy" />
			<input>
				<port id="0" precision="FP32">
					<dim>-1</dim>
					<dim>-1</dim>
					<dim>512</dim>
				</port>
				<port id="1" precision="FP32">
					<dim>1</dim>
					<dim>1</dim>
					<dim>512</dim>
				</port>
			</input>
			<output>
				<port id="2" precision="FP32" names="173">
					<dim>-1</dim>
					<dim>-1</dim>
					<dim>512</dim>
				</port>
			</output>
		</layer>
		<layer id="307" name="Constant_18995" type="Const" version="opset1">
			<data element_type="i64" shape="4" offset="263680" size="32" />
			<output>
				<port id="0" precision="I64">
					<dim>4</dim>
				</port>
			</output>
		</layer>
		<layer id="308" name="__module.model.model.decoder.layers.0.self_attn/aten::view/Reshape_2" type="Reshape" version="opset1">
			<data special_zero="true" />
			<input>
				<port id="0" precision="FP32">
					<dim>-1</dim>
					<dim>-1</dim>
					<dim>512</dim>
				</port>
				<port id="1" precision="I64">
					<dim>4</dim>
				</port>
			</input>
			<output>
				<port id="2" precision="FP32" names="175,value_states.1">
					<dim>-1</dim>
					<dim>-1</dim>
					<dim>8</dim>
					<dim>64</dim>
				</port>
			</output>
		</layer>
		<layer id="309" name="__module.model.model.decoder.layers.0.self_attn/aten::transpose/Constant_2" type="Const" version="opset1">
			<data element_type="i32" shape="4" offset="263712" size="16" />
			<output>
				<port id="0" precision="I32">
					<dim>4</dim>
				</port>
			</output>
		</layer>
		<layer id="310" name="__module.model.model.decoder.layers.0.self_attn/aten::transpose/Transpose_2" type="Transpose" version="opset1">
			<input>
				<port id="0" precision="FP32">
					<dim>-1</dim>
					<dim>-1</dim>
					<dim>8</dim>
					<dim>64</dim>
				</port>
				<port id="1" precision="I32">
					<dim>4</dim>
				</port>
			</input>
			<output>
				<port id="2" precision="FP32" names="178">
					<dim>-1</dim>
					<dim>8</dim>
					<dim>-1</dim>
					<dim>64</dim>
				</port>
			</output>
		</layer>
		<layer id="311" name="__module.model.model.decoder.layers.0.self_attn/aten::cat/Concat_1" type="Concat" version="opset1">
			<data axis="-2" />
			<input>
				<port id="0" precision="FP32">
					<dim>-1</dim>
					<dim>8</dim>
					<dim>-1</dim>
					<dim>64</dim>
				</port>
				<port id="1" precision="FP32">
					<dim>-1</dim>
					<dim>8</dim>
					<dim>-1</dim>
					<dim>64</dim>
				</port>
			</input>
			<output>
				<port id="2" precision="FP32" names="value_states.5">
					<dim>-1</dim>
					<dim>8</dim>
					<dim>-1</dim>
					<dim>64</dim>
				</port>
			</output>
		</layer>
		<layer id="312" name="Constant_17836" type="Const" version="opset1">
			<data element_type="f32" shape="1, 1" offset="30916979" size="4" />
			<output>
				<port id="0" precision="FP32">
					<dim>1</dim>
					<dim>1</dim>
				</port>
			</output>
		</layer>
		<layer id="313" name="__module.model.model.decoder/aten::arange/Constant" type="Const" version="opset1">
			<data element_type="i32" shape="" offset="3176496" size="4" />
			<output>
				<port id="0" precision="I32" />
			</output>
		</layer>
		<layer id="314" name="ShapeOf_18423" type="ShapeOf" version="opset3">
			<data output_type="i64" />
			<input>
				<port id="0" precision="FP32">
					<dim>-1</dim>
					<dim>8</dim>
					<dim>-1</dim>
					<dim>64</dim>
				</port>
			</input>
			<output>
				<port id="1" precision="I64">
					<dim>4</dim>
				</port>
			</output>
		</layer>
		<layer id="315" name="Constant_18424" type="Const" version="opset1">
			<data element_type="i64" shape="" offset="30916983" size="8" />
			<output>
				<port id="0" precision="I64" />
			</output>
		</layer>
		<layer id="316" name="Constant_18425" type="Const" version="opset1">
			<data element_type="i64" shape="" offset="3176500" size="8" />
			<output>
				<port id="0" precision="I64" />
			</output>
		</layer>
		<layer id="317" name="Gather_18426" type="Gather" version="opset8">
			<data batch_dims="0" />
			<input>
				<port id="0" precision="I64">
					<dim>4</dim>
				</port>
				<port id="1" precision="I64" />
				<port id="2" precision="I64" />
			</input>
			<output>
				<port id="3" precision="I64" names="121" />
			</output>
		</layer>
		<layer id="318" name="Constant_18432" type="Const" version="opset1">
			<data element_type="i64" shape="" offset="30117735" size="8" />
			<output>
				<port id="0" precision="I64" />
			</output>
		</layer>
		<layer id="319" name="Constant_18433" type="Const" version="opset1">
			<data element_type="i64" shape="" offset="3176500" size="8" />
			<output>
				<port id="0" precision="I64" />
			</output>
		</layer>
		<layer id="320" name="Gather_18434" type="Gather" version="opset8">
			<data batch_dims="0" />
			<input>
				<port id="0" precision="I64">
					<dim>2</dim>
				</port>
				<port id="1" precision="I64" />
				<port id="2" precision="I64" />
			</input>
			<output>
				<port id="3" precision="I64" names="123" />
			</output>
		</layer>
		<layer id="321" name="__module.model.model.decoder/aten::add/Add_1" type="Add" version="opset1">
			<data auto_broadcast="numpy" />
			<input>
				<port id="0" precision="I64" />
				<port id="1" precision="I64" />
			</input>
			<output>
				<port id="2" precision="I64" names="125" />
			</output>
		</layer>
		<layer id="322" name="__module.model.model.decoder/aten::add/Multiply_2" type="Const" version="opset1">
			<data element_type="i64" shape="" offset="30117735" size="8" />
			<output>
				<port id="0" precision="I64" />
			</output>
		</layer>
		<layer id="323" name="__module.model.model.decoder/aten::add/Add_2" type="Add" version="opset1">
			<data auto_broadcast="numpy" />
			<input>
				<port id="0" precision="I64" />
				<port id="1" precision="I64" />
			</input>
			<output>
				<port id="2" precision="I64" names="126,128,target_length" />
			</output>
		</layer>
		<layer id="324" name="__module.model.model.decoder/aten::arange/Constant_1" type="Const" version="opset1">
			<data element_type="i32" shape="" offset="30916991" size="4" />
			<output>
				<port id="0" precision="I32" />
			</output>
		</layer>
		<layer id="325" name="__module.model.model.decoder/aten::arange/Range" type="Range" version="opset4">
			<data output_type="f32" />
			<input>
				<port id="0" precision="I32" />
				<port id="1" precision="I64" />
				<port id="2" precision="I32" />
			</input>
			<output>
				<port id="3" precision="FP32">
					<dim>-1</dim>
				</port>
			</output>
		</layer>
		<layer id="326" name="__module.model.model.decoder/aten::arange/ConvertLike" type="Convert" version="opset1">
			<data destination_type="i64" />
			<input>
				<port id="0" precision="FP32">
					<dim>-1</dim>
				</port>
			</input>
			<output>
				<port id="1" precision="I64" names="132">
					<dim>-1</dim>
				</port>
			</output>
		</layer>
		<layer id="327" name="Constant_6050" type="Const" version="opset1">
			<data element_type="i64" shape="2" offset="30916995" size="16" />
			<output>
				<port id="0" precision="I64" names="133">
					<dim>2</dim>
				</port>
			</output>
		</layer>
		<layer id="328" name="__module.model.model.decoder/aten::reshape/Reshape" type="Reshape" version="opset1">
			<data special_zero="false" />
			<input>
				<port id="0" precision="I64">
					<dim>-1</dim>
				</port>
				<port id="1" precision="I64">
					<dim>2</dim>
				</port>
			</input>
			<output>
				<port id="2" precision="I64" names="134">
					<dim>-1</dim>
					<dim>1</dim>
				</port>
			</output>
		</layer>
		<layer id="329" name="__module.model.model.decoder/aten::gt/Greater" type="Greater" version="opset1">
			<data auto_broadcast="numpy" />
			<input>
				<port id="0" precision="I64">
					<dim>-1</dim>
				</port>
				<port id="1" precision="I64">
					<dim>-1</dim>
					<dim>1</dim>
				</port>
			</input>
			<output>
				<port id="2" precision="BOOL" names="135">
					<dim>-1</dim>
					<dim>-1</dim>
				</port>
			</output>
		</layer>
		<layer id="330" name="__module.model.model.decoder/aten::mul_/ConvertLike" type="Convert" version="opset1">
			<data destination_type="f32" />
			<input>
				<port id="0" precision="BOOL">
					<dim>-1</dim>
					<dim>-1</dim>
				</port>
			</input>
			<output>
				<port id="1" precision="FP32">
					<dim>-1</dim>
					<dim>-1</dim>
				</port>
			</output>
		</layer>
		<layer id="331" name="Multiply_16085" type="Multiply" version="opset1">
			<data auto_broadcast="numpy" />
			<input>
				<port id="0" precision="FP32">
					<dim>1</dim>
					<dim>1</dim>
				</port>
				<port id="1" precision="FP32">
					<dim>-1</dim>
					<dim>-1</dim>
				</port>
			</input>
			<output>
				<port id="2" precision="FP32">
					<dim>-1</dim>
					<dim>-1</dim>
				</port>
			</output>
		</layer>
		<layer id="332" name="ShapeOf_16086" type="ShapeOf" version="opset3">
			<data output_type="i64" />
			<input>
				<port id="0" precision="FP32">
					<dim>-1</dim>
					<dim>-1</dim>
				</port>
			</input>
			<output>
				<port id="1" precision="I64">
					<dim>2</dim>
				</port>
			</output>
		</layer>
		<layer id="333" name="Constant_18437" type="Const" version="opset1">
			<data element_type="i64" shape="1" offset="30117735" size="8" />
			<output>
				<port id="0" precision="I64">
					<dim>1</dim>
				</port>
			</output>
		</layer>
		<layer id="334" name="Reshape_18438" type="Reshape" version="opset1">
			<data special_zero="false" />
			<input>
				<port id="0" precision="I64" />
				<port id="1" precision="I64">
					<dim>1</dim>
				</port>
			</input>
			<output>
				<port id="2" precision="I64">
					<dim>1</dim>
				</port>
			</output>
		</layer>
		<layer id="335" name="Constant_6036" type="Const" version="opset1">
			<data element_type="i32" shape="" offset="3176496" size="4" />
			<output>
				<port id="0" precision="I32" />
			</output>
		</layer>
		<layer id="336" name="Unsqueeze_6037" type="Unsqueeze" version="opset1">
			<input>
				<port id="0" precision="I64" />
				<port id="1" precision="I32" />
			</input>
			<output>
				<port id="2" precision="I64">
					<dim>1</dim>
				</port>
			</output>
		</layer>
		<layer id="337" name="__module.model.model.decoder/prim::ListConstruct_1" type="Concat" version="opset1">
			<data axis="0" />
			<input>
				<port id="0" precision="I64">
					<dim>1</dim>
				</port>
				<port id="1" precision="I64">
					<dim>1</dim>
				</port>
			</input>
			<output>
				<port id="2" precision="I64">
					<dim>2</dim>
				</port>
			</output>
		</layer>
		<layer id="338" name="Maximum_16087" type="Maximum" version="opset1">
			<data auto_broadcast="numpy" />
			<input>
				<port id="0" precision="I64">
					<dim>2</dim>
				</port>
				<port id="1" precision="I64">
					<dim>2</dim>
				</port>
			</input>
			<output>
				<port id="2" precision="I64">
					<dim>2</dim>
				</port>
			</output>
		</layer>
		<layer id="339" name="__module.model.model.decoder/aten::mul_/Multiply" type="Broadcast" version="opset3">
			<data mode="numpy" />
			<input>
				<port id="0" precision="FP32">
					<dim>-1</dim>
					<dim>-1</dim>
				</port>
				<port id="1" precision="I64">
					<dim>2</dim>
				</port>
			</input>
			<output>
				<port id="2" precision="FP32" names="131,causal_mask.1">
					<dim>-1</dim>
					<dim>-1</dim>
				</port>
			</output>
		</layer>
		<layer id="340" name="__module.model.model.decoder/aten::unsqueeze/Unsqueeze_1" type="Unsqueeze" version="opset1">
			<input>
				<port id="0" precision="FP32">
					<dim>-1</dim>
					<dim>-1</dim>
				</port>
				<port id="1" precision="I64" />
			</input>
			<output>
				<port id="2" precision="FP32" names="137">
					<dim>1</dim>
					<dim>-1</dim>
					<dim>-1</dim>
				</port>
			</output>
		</layer>
		<layer id="341" name="78" type="Const" version="opset1">
			<data element_type="i64" shape="" offset="30117735" size="8" />
			<output>
				<port id="0" precision="I64" names="78" />
			</output>
		</layer>
		<layer id="342" name="__module.model.model.decoder/aten::unsqueeze/Unsqueeze_2" type="Unsqueeze" version="opset1">
			<input>
				<port id="0" precision="FP32">
					<dim>1</dim>
					<dim>-1</dim>
					<dim>-1</dim>
				</port>
				<port id="1" precision="I64" />
			</input>
			<output>
				<port id="2" precision="FP32" names="138,139,140">
					<dim>1</dim>
					<dim>1</dim>
					<dim>-1</dim>
					<dim>-1</dim>
				</port>
			</output>
		</layer>
		<layer id="343" name="Constant_15366" type="Const" version="opset1">
			<data element_type="i64" shape="1" offset="30117735" size="8" />
			<output>
				<port id="0" precision="I64">
					<dim>1</dim>
				</port>
			</output>
		</layer>
		<layer id="344" name="Constant_15368" type="Const" version="opset1">
			<data element_type="i64" shape="1" offset="30117735" size="8" />
			<output>
				<port id="0" precision="I64">
					<dim>1</dim>
				</port>
			</output>
		</layer>
		<layer id="345" name="Constant_15370" type="Const" version="opset1">
			<data element_type="i64" shape="1" offset="30117735" size="8" />
			<output>
				<port id="0" precision="I64">
					<dim>1</dim>
				</port>
			</output>
		</layer>
		<layer id="346" name="__module.model.model.decoder/prim::ListConstruct_2" type="Concat" version="opset1">
			<data axis="0" />
			<input>
				<port id="0" precision="I64">
					<dim>1</dim>
				</port>
				<port id="1" precision="I64">
					<dim>1</dim>
				</port>
				<port id="2" precision="I64">
					<dim>1</dim>
				</port>
				<port id="3" precision="I64">
					<dim>1</dim>
				</port>
			</input>
			<output>
				<port id="4" precision="I64">
					<dim>4</dim>
				</port>
			</output>
		</layer>
		<layer id="347" name="__module.model.model.decoder/aten::expand/Broadcast" type="Broadcast" version="opset3">
			<data mode="bidirectional" />
			<input>
				<port id="0" precision="FP32">
					<dim>1</dim>
					<dim>1</dim>
					<dim>-1</dim>
					<dim>-1</dim>
				</port>
				<port id="1" precision="I64">
					<dim>4</dim>
				</port>
			</input>
			<output>
				<port id="2" precision="FP32" names="142,188,189,190,304,305,306,420,421,422,536,537,538,652,653,654,768,769,770,attention_mask">
					<dim>-1</dim>
					<dim>1</dim>
					<dim>-1</dim>
					<dim>-1</dim>
				</port>
			</output>
		</layer>
		<layer id="348" name="Constant_6333" type="Const" version="opset1">
			<data element_type="i64" shape="1" offset="3176500" size="8" />
			<output>
				<port id="0" precision="I64">
					<dim>1</dim>
				</port>
			</output>
		</layer>
		<layer id="349" name="Constant_18445" type="Const" version="opset1">
			<data element_type="i64" shape="1" offset="30117735" size="8" />
			<output>
				<port id="0" precision="I64">
					<dim>1</dim>
				</port>
			</output>
		</layer>
		<layer id="350" name="Reshape_18446" type="Reshape" version="opset1">
			<data special_zero="false" />
			<input>
				<port id="0" precision="I64" />
				<port id="1" precision="I64">
					<dim>1</dim>
				</port>
			</input>
			<output>
				<port id="2" precision="I64">
					<dim>1</dim>
				</port>
			</output>
		</layer>
		<layer id="351" name="Add_18449" type="Add" version="opset1">
			<data auto_broadcast="numpy" />
			<input>
				<port id="0" precision="I64">
					<dim>1</dim>
				</port>
				<port id="1" precision="I64">
					<dim>1</dim>
				</port>
			</input>
			<output>
				<port id="2" precision="I64" names="187,303,419,535,651,767">
					<dim>1</dim>
				</port>
			</output>
		</layer>
		<layer id="352" name="Constant_6336" type="Const" version="opset1">
			<data element_type="i64" shape="1" offset="30117735" size="8" />
			<output>
				<port id="0" precision="I64">
					<dim>1</dim>
				</port>
			</output>
		</layer>
		<layer id="353" name="Constant_6331" type="Const" version="opset1">
			<data element_type="i64" shape="1" offset="30917011" size="8" />
			<output>
				<port id="0" precision="I64">
					<dim>1</dim>
				</port>
			</output>
		</layer>
		<layer id="354" name="__module.model.model.decoder.layers.0.self_attn/aten::slice/Slice_3" type="Slice" version="opset8">
			<input>
				<port id="0" precision="FP32">
					<dim>-1</dim>
					<dim>1</dim>
					<dim>-1</dim>
					<dim>-1</dim>
				</port>
				<port id="1" precision="I64">
					<dim>1</dim>
				</port>
				<port id="2" precision="I64">
					<dim>1</dim>
				</port>
				<port id="3" precision="I64">
					<dim>1</dim>
				</port>
				<port id="4" precision="I64">
					<dim>1</dim>
				</port>
			</input>
			<output>
				<port id="5" precision="FP32" names="191,307,423,539,655,771,causal_mask,causal_mask.11,causal_mask.13,causal_mask.5,causal_mask.7,causal_mask.9">
					<dim>-1</dim>
					<dim>1</dim>
					<dim>-1</dim>
					<dim>-1</dim>
				</port>
			</output>
		</layer>
		<layer id="355" name="__module.model.model.decoder.layers.0.self_attn/aten::scaled_dot_product_attention/ScaledDotProductAttention" type="ScaledDotProductAttention" version="opset13">
			<data causal="false" />
			<input>
				<port id="0" precision="FP32">
					<dim>-1</dim>
					<dim>8</dim>
					<dim>-1</dim>
					<dim>64</dim>
				</port>
				<port id="1" precision="FP32">
					<dim>-1</dim>
					<dim>8</dim>
					<dim>-1</dim>
					<dim>64</dim>
				</port>
				<port id="2" precision="FP32">
					<dim>-1</dim>
					<dim>8</dim>
					<dim>-1</dim>
					<dim>64</dim>
				</port>
				<port id="3" precision="FP32">
					<dim>-1</dim>
					<dim>1</dim>
					<dim>-1</dim>
					<dim>-1</dim>
				</port>
			</input>
			<output>
				<port id="4" precision="FP32" names="192,attn_output.1">
					<dim>-1</dim>
					<dim>8</dim>
					<dim>-1</dim>
					<dim>64</dim>
				</port>
			</output>
		</layer>
		<layer id="356" name="__module.model.model.decoder.layers.0.self_attn/aten::transpose/Constant_3" type="Const" version="opset1">
			<data element_type="i32" shape="4" offset="263712" size="16" />
			<output>
				<port id="0" precision="I32">
					<dim>4</dim>
				</port>
			</output>
		</layer>
		<layer id="357" name="__module.model.model.decoder.layers.0.self_attn/aten::transpose/Transpose_3" type="Transpose" version="opset1">
			<input>
				<port id="0" precision="FP32">
					<dim>-1</dim>
					<dim>8</dim>
					<dim>-1</dim>
					<dim>64</dim>
				</port>
				<port id="1" precision="I32">
					<dim>4</dim>
				</port>
			</input>
			<output>
				<port id="2" precision="FP32" names="193,attn_output.3">
					<dim>-1</dim>
					<dim>-1</dim>
					<dim>8</dim>
					<dim>64</dim>
				</port>
			</output>
		</layer>
		<layer id="358" name="Constant_18996" type="Const" version="opset1">
			<data element_type="i64" shape="3" offset="30917019" size="24" />
			<output>
				<port id="0" precision="I64">
					<dim>3</dim>
				</port>
			</output>
		</layer>
		<layer id="359" name="__module.model.model.decoder.layers.0.self_attn/aten::reshape/Reshape" type="Reshape" version="opset1">
			<data special_zero="true" />
			<input>
				<port id="0" precision="FP32">
					<dim>-1</dim>
					<dim>-1</dim>
					<dim>8</dim>
					<dim>64</dim>
				</port>
				<port id="1" precision="I64">
					<dim>3</dim>
				</port>
			</input>
			<output>
				<port id="2" precision="FP32" names="195,input.7">
					<dim>-1</dim>
					<dim>-1</dim>
					<dim>512</dim>
				</port>
			</output>
		</layer>
		<layer id="360" name="self.model.model.decoder.layers.0.self_attn.out_proj.weight" type="Const" version="opset1">
			<data element_type="u8" shape="512, 512" offset="30917043" size="262144" />
			<output>
				<port id="0" precision="U8">
					<dim>512</dim>
					<dim>512</dim>
				</port>
			</output>
		</layer>
		<layer id="361" name="Convert_290577" type="Convert" version="opset1">
			<data destination_type="f16" />
			<input>
				<port id="0" precision="U8">
					<dim>512</dim>
					<dim>512</dim>
				</port>
			</input>
			<output>
				<port id="1" precision="FP16">
					<dim>512</dim>
					<dim>512</dim>
				</port>
			</output>
		</layer>
		<layer id="362" name="self.model.model.decoder.layers.0.self_attn.out_proj.weight/zero_point" type="Const" version="opset1">
			<data element_type="u8" shape="512, 1" offset="31179187" size="512" />
			<output>
				<port id="0" precision="U8">
					<dim>512</dim>
					<dim>1</dim>
				</port>
			</output>
		</layer>
		<layer id="363" name="Convert_290580" type="Convert" version="opset1">
			<data destination_type="f16" />
			<input>
				<port id="0" precision="U8">
					<dim>512</dim>
					<dim>1</dim>
				</port>
			</input>
			<output>
				<port id="1" precision="FP16">
					<dim>512</dim>
					<dim>1</dim>
				</port>
			</output>
		</layer>
		<layer id="364" name="self.model.model.decoder.layers.0.self_attn.out_proj.weight/zero_point/subtract" type="Subtract" version="opset1">
			<data auto_broadcast="numpy" />
			<input>
				<port id="0" precision="FP16">
					<dim>512</dim>
					<dim>512</dim>
				</port>
				<port id="1" precision="FP16">
					<dim>512</dim>
					<dim>1</dim>
				</port>
			</input>
			<output>
				<port id="2" precision="FP16">
					<dim>512</dim>
					<dim>512</dim>
				</port>
			</output>
		</layer>
		<layer id="365" name="self.model.model.decoder.layers.0.self_attn.out_proj.weight/scale" type="Const" version="opset1">
			<data element_type="f16" shape="512, 1" offset="31179699" size="1024" />
			<output>
				<port id="0" precision="FP16">
					<dim>512</dim>
					<dim>1</dim>
				</port>
			</output>
		</layer>
		<layer id="366" name="self.model.model.decoder.layers.0.self_attn.out_proj.weight/fq_weights_1" type="Multiply" version="opset1">
			<data auto_broadcast="numpy" />
			<input>
				<port id="0" precision="FP16">
					<dim>512</dim>
					<dim>512</dim>
				</port>
				<port id="1" precision="FP16">
					<dim>512</dim>
					<dim>1</dim>
				</port>
			</input>
			<output>
				<port id="2" precision="FP16">
					<dim>512</dim>
					<dim>512</dim>
				</port>
			</output>
		</layer>
		<layer id="367" name="self.model.model.decoder.layers.0.self_attn.out_proj.weight/fq_weights_1/convert" type="Convert" version="opset1">
			<data destination_type="f32" />
			<input>
				<port id="0" precision="FP16">
					<dim>512</dim>
					<dim>512</dim>
				</port>
			</input>
			<output>
				<port id="1" precision="FP32">
					<dim>512</dim>
					<dim>512</dim>
				</port>
			</output>
		</layer>
		<layer id="368" name="__module.model.model.decoder.layers.0.self_attn.out_proj/aten::linear/MatMul" type="MatMul" version="opset1">
			<data transpose_a="false" transpose_b="true" />
			<input>
				<port id="0" precision="FP32">
					<dim>-1</dim>
					<dim>-1</dim>
					<dim>512</dim>
				</port>
				<port id="1" precision="FP32">
					<dim>512</dim>
					<dim>512</dim>
				</port>
			</input>
			<output>
				<port id="2" precision="FP32">
					<dim>-1</dim>
					<dim>-1</dim>
					<dim>512</dim>
				</port>
			</output>
		</layer>
		<layer id="369" name="Constant_17837" type="Const" version="opset1">
			<data element_type="f32" shape="1, 1, 512" offset="31180723" size="2048" />
			<output>
				<port id="0" precision="FP32">
					<dim>1</dim>
					<dim>1</dim>
					<dim>512</dim>
				</port>
			</output>
		</layer>
		<layer id="370" name="__module.model.model.decoder.layers.0.self_attn.out_proj/aten::linear/Add" type="Add" version="opset1">
			<data auto_broadcast="numpy" />
			<input>
				<port id="0" precision="FP32">
					<dim>-1</dim>
					<dim>-1</dim>
					<dim>512</dim>
				</port>
				<port id="1" precision="FP32">
					<dim>1</dim>
					<dim>1</dim>
					<dim>512</dim>
				</port>
			</input>
			<output>
				<port id="2" precision="FP32" names="198,200,input.9">
					<dim>-1</dim>
					<dim>-1</dim>
					<dim>512</dim>
				</port>
			</output>
		</layer>
		<layer id="371" name="__module.model.model.decoder.layers.0/aten::add/Add" type="Add" version="opset1">
			<data auto_broadcast="numpy" />
			<input>
				<port id="0" precision="FP32">
					<dim>-1</dim>
					<dim>-1</dim>
					<dim>512</dim>
				</port>
				<port id="1" precision="FP32">
					<dim>-1</dim>
					<dim>-1</dim>
					<dim>512</dim>
				</port>
			</input>
			<output>
				<port id="2" precision="FP32" names="204,input.11">
					<dim>-1</dim>
					<dim>-1</dim>
					<dim>512</dim>
				</port>
			</output>
		</layer>
		<layer id="372" name="__module.model.model.decoder.layers.0.encoder_attn_layer_norm/aten::layer_norm/Multiply" type="Const" version="opset1">
			<data element_type="i32" shape="1" offset="30117743" size="4" />
			<output>
				<port id="0" precision="I32">
					<dim>1</dim>
				</port>
			</output>
		</layer>
		<layer id="373" name="__module.model.model.decoder.layers.0.encoder_attn_layer_norm/aten::layer_norm/MVN" type="MVN" version="opset6">
			<data eps="9.9999997473787516e-06" normalize_variance="true" eps_mode="INSIDE_SQRT" />
			<input>
				<port id="0" precision="FP32">
					<dim>-1</dim>
					<dim>-1</dim>
					<dim>512</dim>
				</port>
				<port id="1" precision="I32">
					<dim>1</dim>
				</port>
			</input>
			<output>
				<port id="2" precision="FP32">
					<dim>-1</dim>
					<dim>-1</dim>
					<dim>512</dim>
				</port>
			</output>
		</layer>
		<layer id="374" name="Constant_17838" type="Const" version="opset1">
			<data element_type="f32" shape="1, 1, 512" offset="31182771" size="2048" />
			<output>
				<port id="0" precision="FP32">
					<dim>1</dim>
					<dim>1</dim>
					<dim>512</dim>
				</port>
			</output>
		</layer>
		<layer id="375" name="__module.model.model.decoder.layers.0.encoder_attn_layer_norm/aten::layer_norm/Multiply_1" type="Multiply" version="opset1">
			<data auto_broadcast="numpy" />
			<input>
				<port id="0" precision="FP32">
					<dim>-1</dim>
					<dim>-1</dim>
					<dim>512</dim>
				</port>
				<port id="1" precision="FP32">
					<dim>1</dim>
					<dim>1</dim>
					<dim>512</dim>
				</port>
			</input>
			<output>
				<port id="2" precision="FP32">
					<dim>-1</dim>
					<dim>-1</dim>
					<dim>512</dim>
				</port>
			</output>
		</layer>
		<layer id="376" name="Constant_17839" type="Const" version="opset1">
			<data element_type="f32" shape="1, 1, 512" offset="31184819" size="2048" />
			<output>
				<port id="0" precision="FP32">
					<dim>1</dim>
					<dim>1</dim>
					<dim>512</dim>
				</port>
			</output>
		</layer>
		<layer id="377" name="__module.model.model.decoder.layers.0.encoder_attn_layer_norm/aten::layer_norm/Add" type="Add" version="opset1">
			<data auto_broadcast="numpy" />
			<input>
				<port id="0" precision="FP32">
					<dim>-1</dim>
					<dim>-1</dim>
					<dim>512</dim>
				</port>
				<port id="1" precision="FP32">
					<dim>1</dim>
					<dim>1</dim>
					<dim>512</dim>
				</port>
			</input>
			<output>
				<port id="2" precision="FP32" names="208,hidden_states.5">
					<dim>-1</dim>
					<dim>-1</dim>
					<dim>512</dim>
				</port>
			</output>
		</layer>
		<layer id="378" name="self.model.model.decoder.layers.0.encoder_attn.q_proj.weight" type="Const" version="opset1">
			<data element_type="u8" shape="512, 512" offset="31186867" size="262144" />
			<output>
				<port id="0" precision="U8">
					<dim>512</dim>
					<dim>512</dim>
				</port>
			</output>
		</layer>
		<layer id="379" name="Convert_294510" type="Convert" version="opset1">
			<data destination_type="f16" />
			<input>
				<port id="0" precision="U8">
					<dim>512</dim>
					<dim>512</dim>
				</port>
			</input>
			<output>
				<port id="1" precision="FP16">
					<dim>512</dim>
					<dim>512</dim>
				</port>
			</output>
		</layer>
		<layer id="380" name="self.model.model.decoder.layers.0.encoder_attn.q_proj.weight/zero_point" type="Const" version="opset1">
			<data element_type="u8" shape="512, 1" offset="31449011" size="512" />
			<output>
				<port id="0" precision="U8">
					<dim>512</dim>
					<dim>1</dim>
				</port>
			</output>
		</layer>
		<layer id="381" name="Convert_294513" type="Convert" version="opset1">
			<data destination_type="f16" />
			<input>
				<port id="0" precision="U8">
					<dim>512</dim>
					<dim>1</dim>
				</port>
			</input>
			<output>
				<port id="1" precision="FP16">
					<dim>512</dim>
					<dim>1</dim>
				</port>
			</output>
		</layer>
		<layer id="382" name="self.model.model.decoder.layers.0.encoder_attn.q_proj.weight/zero_point/subtract" type="Subtract" version="opset1">
			<data auto_broadcast="numpy" />
			<input>
				<port id="0" precision="FP16">
					<dim>512</dim>
					<dim>512</dim>
				</port>
				<port id="1" precision="FP16">
					<dim>512</dim>
					<dim>1</dim>
				</port>
			</input>
			<output>
				<port id="2" precision="FP16">
					<dim>512</dim>
					<dim>512</dim>
				</port>
			</output>
		</layer>
		<layer id="383" name="self.model.model.decoder.layers.0.encoder_attn.q_proj.weight/scale" type="Const" version="opset1">
			<data element_type="f16" shape="512, 1" offset="31449523" size="1024" />
			<output>
				<port id="0" precision="FP16">
					<dim>512</dim>
					<dim>1</dim>
				</port>
			</output>
		</layer>
		<layer id="384" name="self.model.model.decoder.layers.0.encoder_attn.q_proj.weight/fq_weights_1" type="Multiply" version="opset1">
			<data auto_broadcast="numpy" />
			<input>
				<port id="0" precision="FP16">
					<dim>512</dim>
					<dim>512</dim>
				</port>
				<port id="1" precision="FP16">
					<dim>512</dim>
					<dim>1</dim>
				</port>
			</input>
			<output>
				<port id="2" precision="FP16">
					<dim>512</dim>
					<dim>512</dim>
				</port>
			</output>
		</layer>
		<layer id="385" name="self.model.model.decoder.layers.0.encoder_attn.q_proj.weight/fq_weights_1/convert" type="Convert" version="opset1">
			<data destination_type="f32" />
			<input>
				<port id="0" precision="FP16">
					<dim>512</dim>
					<dim>512</dim>
				</port>
			</input>
			<output>
				<port id="1" precision="FP32">
					<dim>512</dim>
					<dim>512</dim>
				</port>
			</output>
		</layer>
		<layer id="386" name="__module.model.model.decoder.layers.0.encoder_attn.q_proj/aten::linear/MatMul" type="MatMul" version="opset1">
			<data transpose_a="false" transpose_b="true" />
			<input>
				<port id="0" precision="FP32">
					<dim>-1</dim>
					<dim>-1</dim>
					<dim>512</dim>
				</port>
				<port id="1" precision="FP32">
					<dim>512</dim>
					<dim>512</dim>
				</port>
			</input>
			<output>
				<port id="2" precision="FP32">
					<dim>-1</dim>
					<dim>-1</dim>
					<dim>512</dim>
				</port>
			</output>
		</layer>
		<layer id="387" name="Constant_17840" type="Const" version="opset1">
			<data element_type="f32" shape="1, 1, 512" offset="31450547" size="2048" />
			<output>
				<port id="0" precision="FP32">
					<dim>1</dim>
					<dim>1</dim>
					<dim>512</dim>
				</port>
			</output>
		</layer>
		<layer id="388" name="__module.model.model.decoder.layers.0.encoder_attn.q_proj/aten::linear/Add" type="Add" version="opset1">
			<data auto_broadcast="numpy" />
			<input>
				<port id="0" precision="FP32">
					<dim>-1</dim>
					<dim>-1</dim>
					<dim>512</dim>
				</port>
				<port id="1" precision="FP32">
					<dim>1</dim>
					<dim>1</dim>
					<dim>512</dim>
				</port>
			</input>
			<output>
				<port id="2" precision="FP32" names="217">
					<dim>-1</dim>
					<dim>-1</dim>
					<dim>512</dim>
				</port>
			</output>
		</layer>
		<layer id="389" name="Constant_18997" type="Const" version="opset1">
			<data element_type="i64" shape="4" offset="263680" size="32" />
			<output>
				<port id="0" precision="I64">
					<dim>4</dim>
				</port>
			</output>
		</layer>
		<layer id="390" name="__module.model.model.decoder.layers.0.encoder_attn/aten::view/Reshape" type="Reshape" version="opset1">
			<data special_zero="true" />
			<input>
				<port id="0" precision="FP32">
					<dim>-1</dim>
					<dim>-1</dim>
					<dim>512</dim>
				</port>
				<port id="1" precision="I64">
					<dim>4</dim>
				</port>
			</input>
			<output>
				<port id="2" precision="FP32" names="219,query_states.5">
					<dim>-1</dim>
					<dim>-1</dim>
					<dim>8</dim>
					<dim>64</dim>
				</port>
			</output>
		</layer>
		<layer id="391" name="__module.model.model.decoder.layers.0.encoder_attn/aten::transpose/Constant" type="Const" version="opset1">
			<data element_type="i32" shape="4" offset="263712" size="16" />
			<output>
				<port id="0" precision="I32">
					<dim>4</dim>
				</port>
			</output>
		</layer>
		<layer id="392" name="__module.model.model.decoder.layers.0.encoder_attn/aten::transpose/Transpose" type="Transpose" version="opset1">
			<input>
				<port id="0" precision="FP32">
					<dim>-1</dim>
					<dim>-1</dim>
					<dim>8</dim>
					<dim>64</dim>
				</port>
				<port id="1" precision="I32">
					<dim>4</dim>
				</port>
			</input>
			<output>
				<port id="2" precision="FP32" names="220">
					<dim>-1</dim>
					<dim>8</dim>
					<dim>-1</dim>
					<dim>64</dim>
				</port>
			</output>
		</layer>
		<layer id="393" name="__module.model.model.decoder.layers.0.encoder_attn/aten::scaled_dot_product_attention/ScaledDotProductAttention" type="ScaledDotProductAttention" version="opset13">
			<data causal="false" />
			<input>
				<port id="0" precision="FP32">
					<dim>-1</dim>
					<dim>8</dim>
					<dim>-1</dim>
					<dim>64</dim>
				</port>
				<port id="1" precision="FP32">
					<dim>-1</dim>
					<dim>8</dim>
					<dim>-1</dim>
					<dim>64</dim>
				</port>
				<port id="2" precision="FP32">
					<dim>-1</dim>
					<dim>8</dim>
					<dim>-1</dim>
					<dim>64</dim>
				</port>
			</input>
			<output>
				<port id="3" precision="FP32" names="235,attn_output.5">
					<dim>-1</dim>
					<dim>8</dim>
					<dim>-1</dim>
					<dim>64</dim>
				</port>
			</output>
		</layer>
		<layer id="394" name="__module.model.model.decoder.layers.0.encoder_attn/aten::transpose/Constant_3" type="Const" version="opset1">
			<data element_type="i32" shape="4" offset="263712" size="16" />
			<output>
				<port id="0" precision="I32">
					<dim>4</dim>
				</port>
			</output>
		</layer>
		<layer id="395" name="__module.model.model.decoder.layers.0.encoder_attn/aten::transpose/Transpose_3" type="Transpose" version="opset1">
			<input>
				<port id="0" precision="FP32">
					<dim>-1</dim>
					<dim>8</dim>
					<dim>-1</dim>
					<dim>64</dim>
				</port>
				<port id="1" precision="I32">
					<dim>4</dim>
				</port>
			</input>
			<output>
				<port id="2" precision="FP32" names="236,attn_output.7">
					<dim>-1</dim>
					<dim>-1</dim>
					<dim>8</dim>
					<dim>64</dim>
				</port>
			</output>
		</layer>
		<layer id="396" name="Constant_19000" type="Const" version="opset1">
			<data element_type="i64" shape="3" offset="30917019" size="24" />
			<output>
				<port id="0" precision="I64">
					<dim>3</dim>
				</port>
			</output>
		</layer>
		<layer id="397" name="__module.model.model.decoder.layers.0.encoder_attn/aten::reshape/Reshape" type="Reshape" version="opset1">
			<data special_zero="true" />
			<input>
				<port id="0" precision="FP32">
					<dim>-1</dim>
					<dim>-1</dim>
					<dim>8</dim>
					<dim>64</dim>
				</port>
				<port id="1" precision="I64">
					<dim>3</dim>
				</port>
			</input>
			<output>
				<port id="2" precision="FP32" names="238,input.15">
					<dim>-1</dim>
					<dim>-1</dim>
					<dim>512</dim>
				</port>
			</output>
		</layer>
		<layer id="398" name="self.model.model.decoder.layers.0.encoder_attn.out_proj.weight" type="Const" version="opset1">
			<data element_type="u8" shape="512, 512" offset="31452595" size="262144" />
			<output>
				<port id="0" precision="U8">
					<dim>512</dim>
					<dim>512</dim>
				</port>
			</output>
		</layer>
		<layer id="399" name="Convert_298443" type="Convert" version="opset1">
			<data destination_type="f16" />
			<input>
				<port id="0" precision="U8">
					<dim>512</dim>
					<dim>512</dim>
				</port>
			</input>
			<output>
				<port id="1" precision="FP16">
					<dim>512</dim>
					<dim>512</dim>
				</port>
			</output>
		</layer>
…
		<edge from-layer="543" from-port="0" to-layer="544" to-port="1" />
		<edge from-layer="544" from-port="2" to-layer="546" to-port="0" />
		<edge from-layer="545" from-port="0" to-layer="546" to-port="1" />
		<edge from-layer="546" from-port="2" to-layer="547" to-port="0" />
		<edge from-layer="547" from-port="3" to-layer="549" to-port="0" />
		<edge from-layer="548" from-port="0" to-layer="549" to-port="1" />
		<edge from-layer="549" from-port="2" to-layer="551" to-port="0" />
		<edge from-layer="550" from-port="0" to-layer="551" to-port="1" />
		<edge from-layer="551" from-port="2" to-layer="560" to-port="0" />
		<edge from-layer="552" from-port="0" to-layer="553" to-port="0" />
		<edge from-layer="553" from-port="1" to-layer="556" to-port="0" />
		<edge from-layer="554" from-port="0" to-layer="555" to-port="0" />
		<edge from-layer="555" from-port="1" to-layer="556" to-port="1" />
		<edge from-layer="556" from-port="2" to-layer="558" to-port="0" />
		<edge from-layer="557" from-port="0" to-layer="558" to-port="1" />
		<edge from-layer="558" from-port="2" to-layer="559" to-port="0" />
		<edge from-layer="559" from-port="1" to-layer="560" to-port="1" />
		<edge from-layer="560" from-port="2" to-layer="562" to-port="0" />
		<edge from-layer="561" from-port="0" to-layer="562" to-port="1" />
		<edge from-layer="562" from-port="2" to-layer="563" to-port="1" />
		<edge from-layer="563" from-port="2" to-layer="565" to-port="0" />
		<edge from-layer="563" from-port="2" to-layer="593" to-port="0" />
		<edge from-layer="564" from-port="0" to-layer="565" to-port="1" />
		<edge from-layer="565" from-port="2" to-layer="567" to-port="0" />
		<edge from-layer="566" from-port="0" to-layer="567" to-port="1" />
		<edge from-layer="567" from-port="2" to-layer="569" to-port="0" />
		<edge from-layer="568" from-port="0" to-layer="569" to-port="1" />
		<edge from-layer="569" from-port="2" to-layer="578" to-port="0" />
		<edge from-layer="570" from-port="0" to-layer="571" to-port="0" />
		<edge from-layer="571" from-port="1" to-layer="574" to-port="0" />
		<edge from-layer="572" from-port="0" to-layer="573" to-port="0" />
		<edge from-layer="573" from-port="1" to-layer="574" to-port="1" />
		<edge from-layer="574" from-port="2" to-layer="576" to-port="0" />
		<edge from-layer="575" from-port="0" to-layer="576" to-port="1" />
		<edge from-layer="576" from-port="2" to-layer="577" to-port="0" />
		<edge from-layer="577" from-port="1" to-layer="578" to-port="1" />
		<edge from-layer="578" from-port="2" to-layer="580" to-port="0" />
		<edge from-layer="579" from-port="0" to-layer="580" to-port="1" />
		<edge from-layer="580" from-port="2" to-layer="581" to-port="0" />
		<edge from-layer="581" from-port="1" to-layer="590" to-port="0" />
		<edge from-layer="582" from-port="0" to-layer="583" to-port="0" />
		<edge from-layer="583" from-port="1" to-layer="586" to-port="0" />
		<edge from-layer="584" from-port="0" to-layer="585" to-port="0" />
		<edge from-layer="585" from-port="1" to-layer="586" to-port="1" />
		<edge from-layer="586" from-port="2" to-layer="588" to-port="0" />
		<edge from-layer="587" from-port="0" to-layer="588" to-port="1" />
		<edge from-layer="588" from-port="2" to-layer="589" to-port="0" />
		<edge from-layer="589" from-port="1" to-layer="590" to-port="1" />
		<edge from-layer="590" from-port="2" to-layer="592" to-port="0" />
		<edge from-layer="591" from-port="0" to-layer="592" to-port="1" />
		<edge from-layer="592" from-port="2" to-layer="593" to-port="1" />
		<edge from-layer="593" from-port="2" to-layer="679" to-port="0" />
		<edge from-layer="593" from-port="2" to-layer="595" to-port="0" />
		<edge from-layer="594" from-port="0" to-layer="595" to-port="1" />
		<edge from-layer="595" from-port="2" to-layer="597" to-port="0" />
		<edge from-layer="596" from-port="0" to-layer="597" to-port="1" />
		<edge from-layer="597" from-port="2" to-layer="599" to-port="0" />
		<edge from-layer="598" from-port="0" to-layer="599" to-port="1" />
		<edge from-layer="599" from-port="2" to-layer="632" to-port="0" />
		<edge from-layer="599" from-port="2" to-layer="608" to-port="0" />
		<edge from-layer="599" from-port="2" to-layer="655" to-port="0" />
		<edge from-layer="600" from-port="0" to-layer="601" to-port="0" />
		<edge from-layer="601" from-port="1" to-layer="604" to-port="0" />
		<edge from-layer="602" from-port="0" to-layer="603" to-port="0" />
		<edge from-layer="603" from-port="1" to-layer="604" to-port="1" />
		<edge from-layer="604" from-port="2" to-layer="606" to-port="0" />
		<edge from-layer="605" from-port="0" to-layer="606" to-port="1" />
		<edge from-layer="606" from-port="2" to-layer="607" to-port="0" />
		<edge from-layer="607" from-port="1" to-layer="608" to-port="1" />
		<edge from-layer="608" from-port="2" to-layer="610" to-port="0" />
		<edge from-layer="609" from-port="0" to-layer="610" to-port="1" />
		<edge from-layer="610" from-port="2" to-layer="612" to-port="0" />
		<edge from-layer="611" from-port="0" to-layer="612" to-port="1" />
		<edge from-layer="612" from-port="2" to-layer="614" to-port="0" />
		<edge from-layer="613" from-port="0" to-layer="614" to-port="1" />
		<edge from-layer="614" from-port="2" to-layer="663" to-port="0" />
		<edge from-layer="615" from-port="0" to-layer="620" to-port="0" />
		<edge from-layer="616" from-port="0" to-layer="619" to-port="1" />
		<edge from-layer="617" from-port="0" to-layer="619" to-port="2" />
		<edge from-layer="618" from-port="0" to-layer="619" to-port="3" />
		<edge from-layer="619" from-port="4" to-layer="620" to-port="1" />
		<edge from-layer="620" from-port="2" to-layer="621" to-port="0" />
		<edge from-layer="621" from-port="1" to-layer="623" to-port="0" />
		<edge from-layer="622" from-port="0" to-layer="623" to-port="2" />
		<edge from-layer="623" from-port="3" to-layer="637" to-port="0" />
		<edge from-layer="624" from-port="0" to-layer="625" to-port="0" />
		<edge from-layer="625" from-port="1" to-layer="628" to-port="0" />
		<edge from-layer="626" from-port="0" to-layer="627" to-port="0" />
		<edge from-layer="627" from-port="1" to-layer="628" to-port="1" />
		<edge from-layer="628" from-port="2" to-layer="630" to-port="0" />
		<edge from-layer="629" from-port="0" to-layer="630" to-port="1" />
		<edge from-layer="630" from-port="2" to-layer="631" to-port="0" />
		<edge from-layer="631" from-port="1" to-layer="632" to-port="1" />
		<edge from-layer="632" from-port="2" to-layer="634" to-port="0" />
		<edge from-layer="633" from-port="0" to-layer="634" to-port="1" />
		<edge from-layer="634" from-port="2" to-layer="636" to-port="0" />
		<edge from-layer="635" from-port="0" to-layer="636" to-port="1" />
		<edge from-layer="636" from-port="2" to-layer="637" to-port="1" />
		<edge from-layer="637" from-port="2" to-layer="663" to-port="1" />
		<edge from-layer="637" from-port="2" to-layer="1108" to-port="0" />
		<edge from-layer="638" from-port="0" to-layer="643" to-port="0" />
		<edge from-layer="639" from-port="0" to-layer="642" to-port="1" />
		<edge from-layer="640" from-port="0" to-layer="642" to-port="2" />
		<edge from-layer="641" from-port="0" to-layer="642" to-port="3" />
		<edge from-layer="642" from-port="4" to-layer="643" to-port="1" />
		<edge from-layer="643" from-port="2" to-layer="644" to-port="0" />
		<edge from-layer="644" from-port="1" to-layer="646" to-port="0" />
		<edge from-layer="645" from-port="0" to-layer="646" to-port="2" />
		<edge from-layer="646" from-port="3" to-layer="662" to-port="0" />
		<edge from-layer="647" from-port="0" to-layer="648" to-port="0" />
		<edge from-layer="648" from-port="1" to-layer="651" to-port="0" />
		<edge from-layer="649" from-port="0" to-layer="650" to-port="0" />
		<edge from-layer="650" from-port="1" to-layer="651" to-port="1" />
		<edge from-layer="651" from-port="2" to-layer="653" to-port="0" />
		<edge from-layer="652" from-port="0" to-layer="653" to-port="1" />
		<edge from-layer="653" from-port="2" to-layer="654" to-port="0" />
		<edge from-layer="654" from-port="1" to-layer="655" to-port="1" />
		<edge from-layer="655" from-port="2" to-layer="657" to-port="0" />
		<edge from-layer="656" from-port="0" to-layer="657" to-port="1" />
		<edge from-layer="657" from-port="2" to-layer="659" to-port="0" />
		<edge from-layer="658" from-port="0" to-layer="659" to-port="1" />
		<edge from-layer="659" from-port="2" to-layer="661" to-port="0" />
		<edge from-layer="660" from-port="0" to-layer="661" to-port="1" />
		<edge from-layer="661" from-port="2" to-layer="662" to-port="1" />
		<edge from-layer="662" from-port="2" to-layer="1107" to-port="0" />
		<edge from-layer="662" from-port="2" to-layer="663" to-port="2" />
		<edge from-layer="663" from-port="4" to-layer="665" to-port="0" />
		<edge from-layer="664" from-port="0" to-layer="665" to-port="1" />
		<edge from-layer="665" from-port="2" to-layer="667" to-port="0" />
		<edge from-layer="666" from-port="0" to-layer="667" to-port="1" />
		<edge from-layer="667" from-port="2" to-layer="676" to-port="0" />
		<edge from-layer="668" from-port="0" to-layer="669" to-port="0" />
		<edge from-layer="669" from-port="1" to-layer="672" to-port="0" />
		<edge from-layer="670" from-port="0" to-layer="671" to-port="0" />
		<edge from-layer="671" from-port="1" to-layer="672" to-port="1" />
		<edge from-layer="672" from-port="2" to-layer="674" to-port="0" />
		<edge from-layer="673" from-port="0" to-layer="674" to-port="1" />
		<edge from-layer="674" from-port="2" to-layer="675" to-port="0" />
		<edge from-layer="675" from-port="1" to-layer="676" to-port="1" />
		<edge from-layer="676" from-port="2" to-layer="678" to-port="0" />
		<edge from-layer="677" from-port="0" to-layer="678" to-port="1" />
		<edge from-layer="678" from-port="2" to-layer="679" to-port="1" />
		<edge from-layer="679" from-port="2" to-layer="717" to-port="0" />
		<edge from-layer="679" from-port="2" to-layer="681" to-port="0" />
		<edge from-layer="680" from-port="0" to-layer="681" to-port="1" />
		<edge from-layer="681" from-port="2" to-layer="683" to-port="0" />
		<edge from-layer="682" from-port="0" to-layer="683" to-port="1" />
		<edge from-layer="683" from-port="2" to-layer="685" to-port="0" />
		<edge from-layer="684" from-port="0" to-layer="685" to-port="1" />
		<edge from-layer="685" from-port="2" to-layer="694" to-port="0" />
		<edge from-layer="686" from-port="0" to-layer="687" to-port="0" />
		<edge from-layer="687" from-port="1" to-layer="690" to-port="0" />
		<edge from-layer="688" from-port="0" to-layer="689" to-port="0" />
		<edge from-layer="689" from-port="1" to-layer="690" to-port="1" />
		<edge from-layer="690" from-port="2" to-layer="692" to-port="0" />
		<edge from-layer="691" from-port="0" to-layer="692" to-port="1" />
		<edge from-layer="692" from-port="2" to-layer="693" to-port="0" />
		<edge from-layer="693" from-port="1" to-layer="694" to-port="1" />
		<edge from-layer="694" from-port="2" to-layer="696" to-port="0" />
		<edge from-layer="695" from-port="0" to-layer="696" to-port="1" />
		<edge from-layer="696" from-port="2" to-layer="698" to-port="0" />
		<edge from-layer="697" from-port="0" to-layer="698" to-port="1" />
		<edge from-layer="698" from-port="2" to-layer="700" to-port="0" />
		<edge from-layer="699" from-port="0" to-layer="700" to-port="1" />
		<edge from-layer="700" from-port="2" to-layer="701" to-port="0" />
		<edge from-layer="701" from-port="3" to-layer="703" to-port="0" />
		<edge from-layer="702" from-port="0" to-layer="703" to-port="1" />
		<edge from-layer="703" from-port="2" to-layer="705" to-port="0" />
		<edge from-layer="704" from-port="0" to-layer="705" to-port="1" />
		<edge from-layer="705" from-port="2" to-layer="714" to-port="0" />
		<edge from-layer="706" from-port="0" to-layer="707" to-port="0" />
		<edge from-layer="707" from-port="1" to-layer="710" to-port="0" />
		<edge from-layer="708" from-port="0" to-layer="709" to-port="0" />
		<edge from-layer="709" from-port="1" to-layer="710" to-port="1" />
		<edge from-layer="710" from-port="2" to-layer="712" to-port="0" />
		<edge from-layer="711" from-port="0" to-layer="712" to-port="1" />
		<edge from-layer="712" from-port="2" to-layer="713" to-port="0" />
		<edge from-layer="713" from-port="1" to-layer="714" to-port="1" />
		<edge from-layer="714" from-port="2" to-layer="716" to-port="0" />
		<edge from-layer="715" from-port="0" to-layer="716" to-port="1" />
		<edge from-layer="716" from-port="2" to-layer="717" to-port="1" />
		<edge from-layer="717" from-port="2" to-layer="747" to-port="0" />
		<edge from-layer="717" from-port="2" to-layer="719" to-port="0" />
		<edge from-layer="718" from-port="0" to-layer="719" to-port="1" />
		<edge from-layer="719" from-port="2" to-layer="721" to-port="0" />
		<edge from-layer="720" from-port="0" to-layer="721" to-port="1" />
		<edge from-layer="721" from-port="2" to-layer="723" to-port="0" />
		<edge from-layer="722" from-port="0" to-layer="723" to-port="1" />
		<edge from-layer="723" from-port="2" to-layer="732" to-port="0" />
		<edge from-layer="724" from-port="0" to-layer="725" to-port="0" />
		<edge from-layer="725" from-port="1" to-layer="728" to-port="0" />
		<edge from-layer="726" from-port="0" to-layer="727" to-port="0" />
		<edge from-layer="727" from-port="1" to-layer="728" to-port="1" />
		<edge from-layer="728" from-port="2" to-layer="730" to-port="0" />
		<edge from-layer="729" from-port="0" to-layer="730" to-port="1" />
		<edge from-layer="730" from-port="2" to-layer="731" to-port="0" />
		<edge from-layer="731" from-port="1" to-layer="732" to-port="1" />
		<edge from-layer="732" from-port="2" to-layer="734" to-port="0" />
		<edge from-layer="733" from-port="0" to-layer="734" to-port="1" />
		<edge from-layer="734" from-port="2" to-layer="735" to-port="0" />
		<edge from-layer="735" from-port="1" to-layer="744" to-port="0" />
		<edge from-layer="736" from-port="0" to-layer="737" to-port="0" />
		<edge from-layer="737" from-port="1" to-layer="740" to-port="0" />
		<edge from-layer="738" from-port="0" to-layer="739" to-port="0" />
		<edge from-layer="739" from-port="1" to-layer="740" to-port="1" />
		<edge from-layer="740" from-port="2" to-layer="742" to-port="0" />
		<edge from-layer="741" from-port="0" to-layer="742" to-port="1" />
		<edge from-layer="742" from-port="2" to-layer="743" to-port="0" />
		<edge from-layer="743" from-port="1" to-layer="744" to-port="1" />
		<edge from-layer="744" from-port="2" to-layer="746" to-port="0" />
		<edge from-layer="745" from-port="0" to-layer="746" to-port="1" />
		<edge from-layer="746" from-port="2" to-layer="747" to-port="1" />
		<edge from-layer="747" from-port="2" to-layer="833" to-port="0" />
		<edge from-layer="747" from-port="2" to-layer="749" to-port="0" />
		<edge from-layer="748" from-port="0" to-layer="749" to-port="1" />
		<edge from-layer="749" from-port="2" to-layer="751" to-port="0" />
		<edge from-layer="750" from-port="0" to-layer="751" to-port="1" />
		<edge from-layer="751" from-port="2" to-layer="753" to-port="0" />
		<edge from-layer="752" from-port="0" to-layer="753" to-port="1" />
		<edge from-layer="753" from-port="2" to-layer="809" to-port="0" />
		<edge from-layer="753" from-port="2" to-layer="762" to-port="0" />
		<edge from-layer="753" from-port="2" to-layer="786" to-port="0" />
		<edge from-layer="754" from-port="0" to-layer="755" to-port="0" />
		<edge from-layer="755" from-port="1" to-layer="758" to-port="0" />
		<edge from-layer="756" from-port="0" to-layer="757" to-port="0" />
		<edge from-layer="757" from-port="1" to-layer="758" to-port="1" />
		<edge from-layer="758" from-port="2" to-layer="760" to-port="0" />
		<edge from-layer="759" from-port="0" to-layer="760" to-port="1" />
		<edge from-layer="760" from-port="2" to-layer="761" to-port="0" />
		<edge from-layer="761" from-port="1" to-layer="762" to-port="1" />
		<edge from-layer="762" from-port="2" to-layer="764" to-port="0" />
		<edge from-layer="763" from-port="0" to-layer="764" to-port="1" />
		<edge from-layer="764" from-port="2" to-layer="766" to-port="0" />
		<edge from-layer="765" from-port="0" to-layer="766" to-port="1" />
		<edge from-layer="766" from-port="2" to-layer="768" to-port="0" />
		<edge from-layer="767" from-port="0" to-layer="768" to-port="1" />
		<edge from-layer="768" from-port="2" to-layer="817" to-port="0" />
		<edge from-layer="769" from-port="0" to-layer="774" to-port="0" />
		<edge from-layer="770" from-port="0" to-layer="773" to-port="1" />
		<edge from-layer="771" from-port="0" to-layer="773" to-port="2" />
		<edge from-layer="772" from-port="0" to-layer="773" to-port="3" />
		<edge from-layer="773" from-port="4" to-layer="774" to-port="1" />
		<edge from-layer="774" from-port="2" to-layer="775" to-port="0" />
		<edge from-layer="775" from-port="1" to-layer="777" to-port="0" />
		<edge from-layer="776" from-port="0" to-layer="777" to-port="2" />
		<edge from-layer="777" from-port="3" to-layer="791" to-port="0" />
		<edge from-layer="778" from-port="0" to-layer="779" to-port="0" />
		<edge from-layer="779" from-port="1" to-layer="782" to-port="0" />
		<edge from-layer="780" from-port="0" to-layer="781" to-port="0" />
		<edge from-layer="781" from-port="1" to-layer="782" to-port="1" />
		<edge from-layer="782" from-port="2" to-layer="784" to-port="0" />
		<edge from-layer="783" from-port="0" to-layer="784" to-port="1" />
		<edge from-layer="784" from-port="2" to-layer="785" to-port="0" />
		<edge from-layer="785" from-port="1" to-layer="786" to-port="1" />
		<edge from-layer="786" from-port="2" to-layer="788" to-port="0" />
		<edge from-layer="787" from-port="0" to-layer="788" to-port="1" />
		<edge from-layer="788" from-port="2" to-layer="790" to-port="0" />
		<edge from-layer="789" from-port="0" to-layer="790" to-port="1" />
		<edge from-layer="790" from-port="2" to-layer="791" to-port="1" />
		<edge from-layer="791" from-port="2" to-layer="1106" to-port="0" />
		<edge from-layer="791" from-port="2" to-layer="817" to-port="1" />
		<edge from-layer="792" from-port="0" to-layer="797" to-port="0" />
		<edge from-layer="793" from-port="0" to-layer="796" to-port="1" />
		<edge from-layer="794" from-port="0" to-layer="796" to-port="2" />
		<edge from-layer="795" from-port="0" to-layer="796" to-port="3" />
		<edge from-layer="796" from-port="4" to-layer="797" to-port="1" />
		<edge from-layer="797" from-port="2" to-layer="798" to-port="0" />
		<edge from-layer="798" from-port="1" to-layer="800" to-port="0" />
		<edge from-layer="799" from-port="0" to-layer="800" to-port="2" />
		<edge from-layer="800" from-port="3" to-layer="816" to-port="0" />
		<edge from-layer="801" from-port="0" to-layer="802" to-port="0" />
		<edge from-layer="802" from-port="1" to-layer="805" to-port="0" />
		<edge from-layer="803" from-port="0" to-layer="804" to-port="0" />
		<edge from-layer="804" from-port="1" to-layer="805" to-port="1" />
		<edge from-layer="805" from-port="2" to-layer="807" to-port="0" />
		<edge from-layer="806" from-port="0" to-layer="807" to-port="1" />
		<edge from-layer="807" from-port="2" to-layer="808" to-port="0" />
		<edge from-layer="808" from-port="1" to-layer="809" to-port="1" />
		<edge from-layer="809" from-port="2" to-layer="811" to-port="0" />
		<edge from-layer="810" from-port="0" to-layer="811" to-port="1" />
		<edge from-layer="811" from-port="2" to-layer="813" to-port="0" />
		<edge from-layer="812" from-port="0" to-layer="813" to-port="1" />
		<edge from-layer="813" from-port="2" to-layer="815" to-port="0" />
		<edge from-layer="814" from-port="0" to-layer="815" to-port="1" />
		<edge from-layer="815" from-port="2" to-layer="816" to-port="1" />
		<edge from-layer="816" from-port="2" to-layer="817" to-port="2" />
		<edge from-layer="816" from-port="2" to-layer="1105" to-port="0" />
		<edge from-layer="817" from-port="4" to-layer="819" to-port="0" />
		<edge from-layer="818" from-port="0" to-layer="819" to-port="1" />
		<edge from-layer="819" from-port="2" to-layer="821" to-port="0" />
		<edge from-layer="820" from-port="0" to-layer="821" to-port="1" />
		<edge from-layer="821" from-port="2" to-layer="830" to-port="0" />
		<edge from-layer="822" from-port="0" to-layer="823" to-port="0" />
		<edge from-layer="823" from-port="1" to-layer="826" to-port="0" />
		<edge from-layer="824" from-port="0" to-layer="825" to-port="0" />
		<edge from-layer="825" from-port="1" to-layer="826" to-port="1" />
		<edge from-layer="826" from-port="2" to-layer="828" to-port="0" />
		<edge from-layer="827" from-port="0" to-layer="828" to-port="1" />
		<edge from-layer="828" from-port="2" to-layer="829" to-port="0" />
		<edge from-layer="829" from-port="1" to-layer="830" to-port="1" />
		<edge from-layer="830" from-port="2" to-layer="832" to-port="0" />
		<edge from-layer="831" from-port="0" to-layer="832" to-port="1" />
		<edge from-layer="832" from-port="2" to-layer="833" to-port="1" />
		<edge from-layer="833" from-port="2" to-layer="871" to-port="0" />
		<edge from-layer="833" from-port="2" to-layer="835" to-port="0" />
		<edge from-layer="834" from-port="0" to-layer="835" to-port="1" />
		<edge from-layer="835" from-port="2" to-layer="837" to-port="0" />
		<edge from-layer="836" from-port="0" to-layer="837" to-port="1" />
		<edge from-layer="837" from-port="2" to-layer="839" to-port="0" />
		<edge from-layer="838" from-port="0" to-layer="839" to-port="1" />
		<edge from-layer="839" from-port="2" to-layer="848" to-port="0" />
		<edge from-layer="840" from-port="0" to-layer="841" to-port="0" />
		<edge from-layer="841" from-port="1" to-layer="844" to-port="0" />
		<edge from-layer="842" from-port="0" to-layer="843" to-port="0" />
		<edge from-layer="843" from-port="1" to-layer="844" to-port="1" />
		<edge from-layer="844" from-port="2" to-layer="846" to-port="0" />
		<edge from-layer="845" from-port="0" to-layer="846" to-port="1" />
		<edge from-layer="846" from-port="2" to-layer="847" to-port="0" />
		<edge from-layer="847" from-port="1" to-layer="848" to-port="1" />
		<edge from-layer="848" from-port="2" to-layer="850" to-port="0" />
		<edge from-layer="849" from-port="0" to-layer="850" to-port="1" />
		<edge from-layer="850" from-port="2" to-layer="852" to-port="0" />
		<edge from-layer="851" from-port="0" to-layer="852" to-port="1" />
		<edge from-layer="852" from-port="2" to-layer="854" to-port="0" />
		<edge from-layer="853" from-port="0" to-layer="854" to-port="1" />
		<edge from-layer="854" from-port="2" to-layer="855" to-port="0" />
		<edge from-layer="855" from-port="3" to-layer="857" to-port="0" />
		<edge from-layer="856" from-port="0" to-layer="857" to-port="1" />
		<edge from-layer="857" from-port="2" to-layer="859" to-port="0" />
		<edge from-layer="858" from-port="0" to-layer="859" to-port="1" />
		<edge from-layer="859" from-port="2" to-layer="868" to-port="0" />
		<edge from-layer="860" from-port="0" to-layer="861" to-port="0" />
		<edge from-layer="861" from-port="1" to-layer="864" to-port="0" />
		<edge from-layer="862" from-port="0" to-layer="863" to-port="0" />
		<edge from-layer="863" from-port="1" to-layer="864" to-port="1" />
		<edge from-layer="864" from-port="2" to-layer="866" to-port="0" />
		<edge from-layer="865" from-port="0" to-layer="866" to-port="1" />
		<edge from-layer="866" from-port="2" to-layer="867" to-port="0" />
		<edge from-layer="867" from-port="1" to-layer="868" to-port="1" />
		<edge from-layer="868" from-port="2" to-layer="870" to-port="0" />
		<edge from-layer="869" from-port="0" to-layer="870" to-port="1" />
		<edge from-layer="870" from-port="2" to-layer="871" to-port="1" />
		<edge from-layer="871" from-port="2" to-layer="873" to-port="0" />
		<edge from-layer="871" from-port="2" to-layer="901" to-port="0" />
		<edge from-layer="872" from-port="0" to-layer="873" to-port="1" />
		<edge from-layer="873" from-port="2" to-layer="875" to-port="0" />
		<edge from-layer="874" from-port="0" to-layer="875" to-port="1" />
		<edge from-layer="875" from-port="2" to-layer="877" to-port="0" />
		<edge from-layer="876" from-port="0" to-layer="877" to-port="1" />
		<edge from-layer="877" from-port="2" to-layer="886" to-port="0" />
		<edge from-layer="878" from-port="0" to-layer="879" to-port="0" />
		<edge from-layer="879" from-port="1" to-layer="882" to-port="0" />
		<edge from-layer="880" from-port="0" to-layer="881" to-port="0" />
		<edge from-layer="881" from-port="1" to-layer="882" to-port="1" />
		<edge from-layer="882" from-port="2" to-layer="884" to-port="0" />
		<edge from-layer="883" from-port="0" to-layer="884" to-port="1" />
		<edge from-layer="884" from-port="2" to-layer="885" to-port="0" />
		<edge from-layer="885" from-port="1" to-layer="886" to-port="1" />
		<edge from-layer="886" from-port="2" to-layer="888" to-port="0" />
		<edge from-layer="887" from-port="0" to-layer="888" to-port="1" />
		<edge from-layer="888" from-port="2" to-layer="889" to-port="0" />
		<edge from-layer="889" from-port="1" to-layer="898" to-port="0" />
		<edge from-layer="890" from-port="0" to-layer="891" to-port="0" />
		<edge from-layer="891" from-port="1" to-layer="894" to-port="0" />
		<edge from-layer="892" from-port="0" to-layer="893" to-port="0" />
		<edge from-layer="893" from-port="1" to-layer="894" to-port="1" />
		<edge from-layer="894" from-port="2" to-layer="896" to-port="0" />
		<edge from-layer="895" from-port="0" to-layer="896" to-port="1" />
		<edge from-layer="896" from-port="2" to-layer="897" to-port="0" />
		<edge from-layer="897" from-port="1" to-layer="898" to-port="1" />
		<edge from-layer="898" from-port="2" to-layer="900" to-port="0" />
		<edge from-layer="899" from-port="0" to-layer="900" to-port="1" />
		<edge from-layer="900" from-port="2" to-layer="901" to-port="1" />
		<edge from-layer="901" from-port="2" to-layer="987" to-port="0" />
		<edge from-layer="901" from-port="2" to-layer="903" to-port="0" />
		<edge from-layer="902" from-port="0" to-layer="903" to-port="1" />
		<edge from-layer="903" from-port="2" to-layer="905" to-port="0" />
		<edge from-layer="904" from-port="0" to-layer="905" to-port="1" />
		<edge from-layer="905" from-port="2" to-layer="907" to-port="0" />
		<edge from-layer="906" from-port="0" to-layer="907" to-port="1" />
		<edge from-layer="907" from-port="2" to-layer="963" to-port="0" />
		<edge from-layer="907" from-port="2" to-layer="940" to-port="0" />
		<edge from-layer="907" from-port="2" to-layer="916" to-port="0" />
		<edge from-layer="908" from-port="0" to-layer="909" to-port="0" />
		<edge from-layer="909" from-port="1" to-layer="912" to-port="0" />
		<edge from-layer="910" from-port="0" to-layer="911" to-port="0" />
		<edge from-layer="911" from-port="1" to-layer="912" to-port="1" />
		<edge from-layer="912" from-port="2" to-layer="914" to-port="0" />
		<edge from-layer="913" from-port="0" to-layer="914" to-port="1" />
		<edge from-layer="914" from-port="2" to-layer="915" to-port="0" />
		<edge from-layer="915" from-port="1" to-layer="916" to-port="1" />
		<edge from-layer="916" from-port="2" to-layer="918" to-port="0" />
		<edge from-layer="917" from-port="0" to-layer="918" to-port="1" />
		<edge from-layer="918" from-port="2" to-layer="920" to-port="0" />
		<edge from-layer="919" from-port="0" to-layer="920" to-port="1" />
		<edge from-layer="920" from-port="2" to-layer="922" to-port="0" />
		<edge from-layer="921" from-port="0" to-layer="922" to-port="1" />
		<edge from-layer="922" from-port="2" to-layer="971" to-port="0" />
		<edge from-layer="923" from-port="0" to-layer="928" to-port="0" />
		<edge from-layer="924" from-port="0" to-layer="927" to-port="1" />
		<edge from-layer="925" from-port="0" to-layer="927" to-port="2" />
		<edge from-layer="926" from-port="0" to-layer="927" to-port="3" />
		<edge from-layer="927" from-port="4" to-layer="928" to-port="1" />
		<edge from-layer="928" from-port="2" to-layer="929" to-port="0" />
		<edge from-layer="929" from-port="1" to-layer="931" to-port="0" />
		<edge from-layer="930" from-port="0" to-layer="931" to-port="2" />
		<edge from-layer="931" from-port="3" to-layer="945" to-port="0" />
		<edge from-layer="932" from-port="0" to-layer="933" to-port="0" />
		<edge from-layer="933" from-port="1" to-layer="936" to-port="0" />
		<edge from-layer="934" from-port="0" to-layer="935" to-port="0" />
		<edge from-layer="935" from-port="1" to-layer="936" to-port="1" />
		<edge from-layer="936" from-port="2" to-layer="938" to-port="0" />
		<edge from-layer="937" from-port="0" to-layer="938" to-port="1" />
		<edge from-layer="938" from-port="2" to-layer="939" to-port="0" />
		<edge from-layer="939" from-port="1" to-layer="940" to-port="1" />
		<edge from-layer="940" from-port="2" to-layer="942" to-port="0" />
		<edge from-layer="941" from-port="0" to-layer="942" to-port="1" />
		<edge from-layer="942" from-port="2" to-layer="944" to-port="0" />
		<edge from-layer="943" from-port="0" to-layer="944" to-port="1" />
		<edge from-layer="944" from-port="2" to-layer="945" to-port="1" />
		<edge from-layer="945" from-port="2" to-layer="1104" to-port="0" />
		<edge from-layer="945" from-port="2" to-layer="971" to-port="1" />
		<edge from-layer="946" from-port="0" to-layer="951" to-port="0" />
		<edge from-layer="947" from-port="0" to-layer="950" to-port="1" />
		<edge from-layer="948" from-port="0" to-layer="950" to-port="2" />
		<edge from-layer="949" from-port="0" to-layer="950" to-port="3" />
		<edge from-layer="950" from-port="4" to-layer="951" to-port="1" />
		<edge from-layer="951" from-port="2" to-layer="952" to-port="0" />
		<edge from-layer="952" from-port="1" to-layer="954" to-port="0" />
		<edge from-layer="953" from-port="0" to-layer="954" to-port="2" />
		<edge from-layer="954" from-port="3" to-layer="970" to-port="0" />
		<edge from-layer="955" from-port="0" to-layer="956" to-port="0" />
		<edge from-layer="956" from-port="1" to-layer="959" to-port="0" />
		<edge from-layer="957" from-port="0" to-layer="958" to-port="0" />
		<edge from-layer="958" from-port="1" to-layer="959" to-port="1" />
		<edge from-layer="959" from-port="2" to-layer="961" to-port="0" />
		<edge from-layer="960" from-port="0" to-layer="961" to-port="1" />
		<edge from-layer="961" from-port="2" to-layer="962" to-port="0" />
		<edge from-layer="962" from-port="1" to-layer="963" to-port="1" />
		<edge from-layer="963" from-port="2" to-layer="965" to-port="0" />
		<edge from-layer="964" from-port="0" to-layer="965" to-port="1" />
		<edge from-layer="965" from-port="2" to-layer="967" to-port="0" />
		<edge from-layer="966" from-port="0" to-layer="967" to-port="1" />
		<edge from-layer="967" from-port="2" to-layer="969" to-port="0" />
		<edge from-layer="968" from-port="0" to-layer="969" to-port="1" />
		<edge from-layer="969" from-port="2" to-layer="970" to-port="1" />
		<edge from-layer="970" from-port="2" to-layer="1103" to-port="0" />
		<edge from-layer="970" from-port="2" to-layer="971" to-port="2" />
		<edge from-layer="971" from-port="4" to-layer="973" to-port="0" />
		<edge from-layer="972" from-port="0" to-layer="973" to-port="1" />
		<edge from-layer="973" from-port="2" to-layer="975" to-port="0" />
		<edge from-layer="974" from-port="0" to-layer="975" to-port="1" />
		<edge from-layer="975" from-port="2" to-layer="984" to-port="0" />
		<edge from-layer="976" from-port="0" to-layer="977" to-port="0" />
		<edge from-layer="977" from-port="1" to-layer="980" to-port="0" />
		<edge from-layer="978" from-port="0" to-layer="979" to-port="0" />
		<edge from-layer="979" from-port="1" to-layer="980" to-port="1" />
		<edge from-layer="980" from-port="2" to-layer="982" to-port="0" />
		<edge from-layer="981" from-port="0" to-layer="982" to-port="1" />
		<edge from-layer="982" from-port="2" to-layer="983" to-port="0" />
		<edge from-layer="983" from-port="1" to-layer="984" to-port="1" />
		<edge from-layer="984" from-port="2" to-layer="986" to-port="0" />
		<edge from-layer="985" from-port="0" to-layer="986" to-port="1" />
		<edge from-layer="986" from-port="2" to-layer="987" to-port="1" />
		<edge from-layer="987" from-port="2" to-layer="989" to-port="0" />
		<edge from-layer="987" from-port="2" to-layer="1025" to-port="0" />
		<edge from-layer="988" from-port="0" to-layer="989" to-port="1" />
		<edge from-layer="989" from-port="2" to-layer="991" to-port="0" />
		<edge from-layer="990" from-port="0" to-layer="991" to-port="1" />
		<edge from-layer="991" from-port="2" to-layer="993" to-port="0" />
		<edge from-layer="992" from-port="0" to-layer="993" to-port="1" />
		<edge from-layer="993" from-port="2" to-layer="1002" to-port="0" />
		<edge from-layer="994" from-port="0" to-layer="995" to-port="0" />
		<edge from-layer="995" from-port="1" to-layer="998" to-port="0" />
		<edge from-layer="996" from-port="0" to-layer="997" to-port="0" />
		<edge from-layer="997" from-port="1" to-layer="998" to-port="1" />
		<edge from-layer="998" from-port="2" to-layer="1000" to-port="0" />
		<edge from-layer="999" from-port="0" to-layer="1000" to-port="1" />
		<edge from-layer="1000" from-port="2" to-layer="1001" to-port="0" />
		<edge from-layer="1001" from-port="1" to-layer="1002" to-port="1" />
		<edge from-layer="1002" from-port="2" to-layer="1004" to-port="0" />
		<edge from-layer="1003" from-port="0" to-layer="1004" to-port="1" />
		<edge from-layer="1004" from-port="2" to-layer="1006" to-port="0" />
		<edge from-layer="1005" from-port="0" to-layer="1006" to-port="1" />
		<edge from-layer="1006" from-port="2" to-layer="1008" to-port="0" />
		<edge from-layer="1007" from-port="0" to-layer="1008" to-port="1" />
		<edge from-layer="1008" from-port="2" to-layer="1009" to-port="0" />
		<edge from-layer="1009" from-port="3" to-layer="1011" to-port="0" />
		<edge from-layer="1010" from-port="0" to-layer="1011" to-port="1" />
		<edge from-layer="1011" from-port="2" to-layer="1013" to-port="0" />
		<edge from-layer="1012" from-port="0" to-layer="1013" to-port="1" />
		<edge from-layer="1013" from-port="2" to-layer="1022" to-port="0" />
		<edge from-layer="1014" from-port="0" to-layer="1015" to-port="0" />
		<edge from-layer="1015" from-port="1" to-layer="1018" to-port="0" />
		<edge from-layer="1016" from-port="0" to-layer="1017" to-port="0" />
		<edge from-layer="1017" from-port="1" to-layer="1018" to-port="1" />
		<edge from-layer="1018" from-port="2" to-layer="1020" to-port="0" />
		<edge from-layer="1019" from-port="0" to-layer="1020" to-port="1" />
		<edge from-layer="1020" from-port="2" to-layer="1021" to-port="0" />
		<edge from-layer="1021" from-port="1" to-layer="1022" to-port="1" />
		<edge from-layer="1022" from-port="2" to-layer="1024" to-port="0" />
		<edge from-layer="1023" from-port="0" to-layer="1024" to-port="1" />
		<edge from-layer="1024" from-port="2" to-layer="1025" to-port="1" />
		<edge from-layer="1025" from-port="2" to-layer="1027" to-port="0" />
		<edge from-layer="1025" from-port="2" to-layer="1055" to-port="0" />
		<edge from-layer="1026" from-port="0" to-layer="1027" to-port="1" />
		<edge from-layer="1027" from-port="2" to-layer="1029" to-port="0" />
		<edge from-layer="1028" from-port="0" to-layer="1029" to-port="1" />
		<edge from-layer="1029" from-port="2" to-layer="1031" to-port="0" />
		<edge from-layer="1030" from-port="0" to-layer="1031" to-port="1" />
		<edge from-layer="1031" from-port="2" to-layer="1040" to-port="0" />
		<edge from-layer="1032" from-port="0" to-layer="1033" to-port="0" />
		<edge from-layer="1033" from-port="1" to-layer="1036" to-port="0" />
		<edge from-layer="1034" from-port="0" to-layer="1035" to-port="0" />
		<edge from-layer="1035" from-port="1" to-layer="1036" to-port="1" />
		<edge from-layer="1036" from-port="2" to-layer="1038" to-port="0" />
		<edge from-layer="1037" from-port="0" to-layer="1038" to-port="1" />
		<edge from-layer="1038" from-port="2" to-layer="1039" to-port="0" />
		<edge from-layer="1039" from-port="1" to-layer="1040" to-port="1" />
		<edge from-layer="1040" from-port="2" to-layer="1042" to-port="0" />
		<edge from-layer="1041" from-port="0" to-layer="1042" to-port="1" />
		<edge from-layer="1042" from-port="2" to-layer="1043" to-port="0" />
		<edge from-layer="1043" from-port="1" to-layer="1052" to-port="0" />
		<edge from-layer="1044" from-port="0" to-layer="1045" to-port="0" />
		<edge from-layer="1045" from-port="1" to-layer="1048" to-port="0" />
		<edge from-layer="1046" from-port="0" to-layer="1047" to-port="0" />
		<edge from-layer="1047" from-port="1" to-layer="1048" to-port="1" />
		<edge from-layer="1048" from-port="2" to-layer="1050" to-port="0" />
		<edge from-layer="1049" from-port="0" to-layer="1050" to-port="1" />
		<edge from-layer="1050" from-port="2" to-layer="1051" to-port="0" />
		<edge from-layer="1051" from-port="1" to-layer="1052" to-port="1" />
		<edge from-layer="1052" from-port="2" to-layer="1054" to-port="0" />
		<edge from-layer="1053" from-port="0" to-layer="1054" to-port="1" />
		<edge from-layer="1054" from-port="2" to-layer="1055" to-port="1" />
		<edge from-layer="1055" from-port="2" to-layer="1057" to-port="0" />
		<edge from-layer="1055" from-port="2" to-layer="1144" to-port="0" />
		<edge from-layer="1056" from-port="0" to-layer="1057" to-port="1" />
		<edge from-layer="1057" from-port="2" to-layer="1059" to-port="0" />
		<edge from-layer="1058" from-port="0" to-layer="1059" to-port="1" />
		<edge from-layer="1059" from-port="2" to-layer="1061" to-port="0" />
		<edge from-layer="1060" from-port="0" to-layer="1061" to-port="1" />
		<edge from-layer="1061" from-port="2" to-layer="1070" to-port="0" />
		<edge from-layer="1061" from-port="2" to-layer="1121" to-port="0" />
		<edge from-layer="1061" from-port="2" to-layer="1096" to-port="0" />
		<edge from-layer="1062" from-port="0" to-layer="1063" to-port="0" />
		<edge from-layer="1063" from-port="1" to-layer="1066" to-port="0" />
		<edge from-layer="1064" from-port="0" to-layer="1065" to-port="0" />
		<edge from-layer="1065" from-port="1" to-layer="1066" to-port="1" />
		<edge from-layer="1066" from-port="2" to-layer="1068" to-port="0" />
		<edge from-layer="1067" from-port="0" to-layer="1068" to-port="1" />
		<edge from-layer="1068" from-port="2" to-layer="1069" to-port="0" />
		<edge from-layer="1069" from-port="1" to-layer="1070" to-port="1" />
		<edge from-layer="1070" from-port="2" to-layer="1072" to-port="0" />
		<edge from-layer="1071" from-port="0" to-layer="1072" to-port="1" />
		<edge from-layer="1072" from-port="2" to-layer="1074" to-port="0" />
		<edge from-layer="1073" from-port="0" to-layer="1074" to-port="1" />
		<edge from-layer="1074" from-port="2" to-layer="1076" to-port="0" />
		<edge from-layer="1075" from-port="0" to-layer="1076" to-port="1" />
		<edge from-layer="1076" from-port="2" to-layer="1077" to-port="1" />
		<edge from-layer="1077" from-port="2" to-layer="1128" to-port="2" />
		<edge from-layer="1077" from-port="2" to-layer="1078" to-port="0" />
		<edge from-layer="1079" from-port="0" to-layer="1084" to-port="0" />
		<edge from-layer="1080" from-port="0" to-layer="1083" to-port="1" />
		<edge from-layer="1081" from-port="0" to-layer="1083" to-port="2" />
		<edge from-layer="1082" from-port="0" to-layer="1083" to-port="3" />
		<edge from-layer="1083" from-port="4" to-layer="1084" to-port="1" />
		<edge from-layer="1084" from-port="2" to-layer="1085" to-port="0" />
		<edge from-layer="1085" from-port="1" to-layer="1087" to-port="0" />
		<edge from-layer="1086" from-port="0" to-layer="1087" to-port="2" />
		<edge from-layer="1087" from-port="3" to-layer="1101" to-port="0" />
		<edge from-layer="1088" from-port="0" to-layer="1089" to-port="0" />
		<edge from-layer="1089" from-port="1" to-layer="1092" to-port="0" />
		<edge from-layer="1090" from-port="0" to-layer="1091" to-port="0" />
		<edge from-layer="1091" from-port="1" to-layer="1092" to-port="1" />
		<edge from-layer="1092" from-port="2" to-layer="1094" to-port="0" />
		<edge from-layer="1093" from-port="0" to-layer="1094" to-port="1" />
		<edge from-layer="1094" from-port="2" to-layer="1095" to-port="0" />
		<edge from-layer="1095" from-port="1" to-layer="1096" to-port="1" />
		<edge from-layer="1096" from-port="2" to-layer="1098" to-port="0" />
		<edge from-layer="1097" from-port="0" to-layer="1098" to-port="1" />
		<edge from-layer="1098" from-port="2" to-layer="1100" to-port="0" />
		<edge from-layer="1099" from-port="0" to-layer="1100" to-port="1" />
		<edge from-layer="1100" from-port="2" to-layer="1101" to-port="1" />
		<edge from-layer="1101" from-port="2" to-layer="1102" to-port="0" />
		<edge from-layer="1101" from-port="2" to-layer="1128" to-port="1" />
		<edge from-layer="1113" from-port="0" to-layer="1114" to-port="0" />
		<edge from-layer="1114" from-port="1" to-layer="1117" to-port="0" />
		<edge from-layer="1115" from-port="0" to-layer="1116" to-port="0" />
		<edge from-layer="1116" from-port="1" to-layer="1117" to-port="1" />
		<edge from-layer="1117" from-port="2" to-layer="1119" to-port="0" />
		<edge from-layer="1118" from-port="0" to-layer="1119" to-port="1" />
		<edge from-layer="1119" from-port="2" to-layer="1120" to-port="0" />
		<edge from-layer="1120" from-port="1" to-layer="1121" to-port="1" />
		<edge from-layer="1121" from-port="2" to-layer="1123" to-port="0" />
		<edge from-layer="1122" from-port="0" to-layer="1123" to-port="1" />
		<edge from-layer="1123" from-port="2" to-layer="1125" to-port="0" />
		<edge from-layer="1124" from-port="0" to-layer="1125" to-port="1" />
		<edge from-layer="1125" from-port="2" to-layer="1127" to-port="0" />
		<edge from-layer="1126" from-port="0" to-layer="1127" to-port="1" />
		<edge from-layer="1127" from-port="2" to-layer="1128" to-port="0" />
		<edge from-layer="1128" from-port="4" to-layer="1130" to-port="0" />
		<edge from-layer="1129" from-port="0" to-layer="1130" to-port="1" />
		<edge from-layer="1130" from-port="2" to-layer="1132" to-port="0" />
		<edge from-layer="1131" from-port="0" to-layer="1132" to-port="1" />
		<edge from-layer="1132" from-port="2" to-layer="1141" to-port="0" />
		<edge from-layer="1133" from-port="0" to-layer="1134" to-port="0" />
		<edge from-layer="1134" from-port="1" to-layer="1137" to-port="0" />
		<edge from-layer="1135" from-port="0" to-layer="1136" to-port="0" />
		<edge from-layer="1136" from-port="1" to-layer="1137" to-port="1" />
		<edge from-layer="1137" from-port="2" to-layer="1139" to-port="0" />
		<edge from-layer="1138" from-port="0" to-layer="1139" to-port="1" />
		<edge from-layer="1139" from-port="2" to-layer="1140" to-port="0" />
		<edge from-layer="1140" from-port="1" to-layer="1141" to-port="1" />
		<edge from-layer="1141" from-port="2" to-layer="1143" to-port="0" />
		<edge from-layer="1142" from-port="0" to-layer="1143" to-port="1" />
		<edge from-layer="1143" from-port="2" to-layer="1144" to-port="1" />
		<edge from-layer="1144" from-port="2" to-layer="1146" to-port="0" />
		<edge from-layer="1144" from-port="2" to-layer="1182" to-port="0" />
		<edge from-layer="1145" from-port="0" to-layer="1146" to-port="1" />
		<edge from-layer="1146" from-port="2" to-layer="1148" to-port="0" />
		<edge from-layer="1147" from-port="0" to-layer="1148" to-port="1" />
		<edge from-layer="1148" from-port="2" to-layer="1150" to-port="0" />
		<edge from-layer="1149" from-port="0" to-layer="1150" to-port="1" />
		<edge from-layer="1150" from-port="2" to-layer="1159" to-port="0" />
		<edge from-layer="1151" from-port="0" to-layer="1152" to-port="0" />
		<edge from-layer="1152" from-port="1" to-layer="1155" to-port="0" />
		<edge from-layer="1153" from-port="0" to-layer="1154" to-port="0" />
		<edge from-layer="1154" from-port="1" to-layer="1155" to-port="1" />
		<edge from-layer="1155" from-port="2" to-layer="1157" to-port="0" />
		<edge from-layer="1156" from-port="0" to-layer="1157" to-port="1" />
		<edge from-layer="1157" from-port="2" to-layer="1158" to-port="0" />
		<edge from-layer="1158" from-port="1" to-layer="1159" to-port="1" />
		<edge from-layer="1159" from-port="2" to-layer="1161" to-port="0" />
		<edge from-layer="1160" from-port="0" to-layer="1161" to-port="1" />
		<edge from-layer="1161" from-port="2" to-layer="1163" to-port="0" />
		<edge from-layer="1162" from-port="0" to-layer="1163" to-port="1" />
		<edge from-layer="1163" from-port="2" to-layer="1165" to-port="0" />
		<edge from-layer="1164" from-port="0" to-layer="1165" to-port="1" />
		<edge from-layer="1165" from-port="2" to-layer="1166" to-port="0" />
		<edge from-layer="1166" from-port="3" to-layer="1168" to-port="0" />
		<edge from-layer="1167" from-port="0" to-layer="1168" to-port="1" />
		<edge from-layer="1168" from-port="2" to-layer="1170" to-port="0" />
		<edge from-layer="1169" from-port="0" to-layer="1170" to-port="1" />
		<edge from-layer="1170" from-port="2" to-layer="1179" to-port="0" />
		<edge from-layer="1171" from-port="0" to-layer="1172" to-port="0" />
		<edge from-layer="1172" from-port="1" to-layer="1175" to-port="0" />
		<edge from-layer="1173" from-port="0" to-layer="1174" to-port="0" />
		<edge from-layer="1174" from-port="1" to-layer="1175" to-port="1" />
		<edge from-layer="1175" from-port="2" to-layer="1177" to-port="0" />
		<edge from-layer="1176" from-port="0" to-layer="1177" to-port="1" />
		<edge from-layer="1177" from-port="2" to-layer="1178" to-port="0" />
		<edge from-layer="1178" from-port="1" to-layer="1179" to-port="1" />
		<edge from-layer="1179" from-port="2" to-layer="1181" to-port="0" />
		<edge from-layer="1180" from-port="0" to-layer="1181" to-port="1" />
		<edge from-layer="1181" from-port="2" to-layer="1182" to-port="1" />
		<edge from-layer="1182" from-port="2" to-layer="1184" to-port="0" />
		<edge from-layer="1182" from-port="2" to-layer="1212" to-port="0" />
		<edge from-layer="1183" from-port="0" to-layer="1184" to-port="1" />
		<edge from-layer="1184" from-port="2" to-layer="1186" to-port="0" />
		<edge from-layer="1185" from-port="0" to-layer="1186" to-port="1" />
		<edge from-layer="1186" from-port="2" to-layer="1188" to-port="0" />
		<edge from-layer="1187" from-port="0" to-layer="1188" to-port="1" />
		<edge from-layer="1188" from-port="2" to-layer="1197" to-port="0" />
		<edge from-layer="1189" from-port="0" to-layer="1190" to-port="0" />
		<edge from-layer="1190" from-port="1" to-layer="1193" to-port="0" />
		<edge from-layer="1191" from-port="0" to-layer="1192" to-port="0" />
		<edge from-layer="1192" from-port="1" to-layer="1193" to-port="1" />
		<edge from-layer="1193" from-port="2" to-layer="1195" to-port="0" />
		<edge from-layer="1194" from-port="0" to-layer="1195" to-port="1" />
		<edge from-layer="1195" from-port="2" to-layer="1196" to-port="0" />
		<edge from-layer="1196" from-port="1" to-layer="1197" to-port="1" />
		<edge from-layer="1197" from-port="2" to-layer="1199" to-port="0" />
		<edge from-layer="1198" from-port="0" to-layer="1199" to-port="1" />
		<edge from-layer="1199" from-port="2" to-layer="1200" to-port="0" />
		<edge from-layer="1200" from-port="1" to-layer="1209" to-port="0" />
		<edge from-layer="1201" from-port="0" to-layer="1202" to-port="0" />
		<edge from-layer="1202" from-port="1" to-layer="1205" to-port="0" />
		<edge from-layer="1203" from-port="0" to-layer="1204" to-port="0" />
		<edge from-layer="1204" from-port="1" to-layer="1205" to-port="1" />
		<edge from-layer="1205" from-port="2" to-layer="1207" to-port="0" />
		<edge from-layer="1206" from-port="0" to-layer="1207" to-port="1" />
		<edge from-layer="1207" from-port="2" to-layer="1208" to-port="0" />
		<edge from-layer="1208" from-port="1" to-layer="1209" to-port="1" />
		<edge from-layer="1209" from-port="2" to-layer="1211" to-port="0" />
		<edge from-layer="1210" from-port="0" to-layer="1211" to-port="1" />
		<edge from-layer="1211" from-port="2" to-layer="1212" to-port="1" />
		<edge from-layer="1212" from-port="2" to-layer="1214" to-port="0" />
		<edge from-layer="1213" from-port="0" to-layer="1214" to-port="1" />
		<edge from-layer="1214" from-port="2" to-layer="1216" to-port="0" />
		<edge from-layer="1215" from-port="0" to-layer="1216" to-port="1" />
		<edge from-layer="1216" from-port="2" to-layer="1218" to-port="0" />
		<edge from-layer="1217" from-port="0" to-layer="1218" to-port="1" />
		<edge from-layer="1218" from-port="2" to-layer="1219" to-port="0" />
		<edge from-layer="1219" from-port="2" to-layer="1220" to-port="0" />
	</edges>
	<rt_info>
		<Runtime_version value="2025.3.0-19719-dd1b9fc0747" />
		<conversion_parameters>
			<framework value="pytorch" />
			<is_python_object value="True" />
		</conversion_parameters>
		<nncf>
			<friendly_names_were_updated value="True" />
			<version value="2.17.0" />
			<weight_compression>
				<advanced_parameters value="{'statistics_path': None, 'awq_params': {'subset_size': 32, 'percent_to_apply': 0.002, 'alpha_min': 0.0, 'alpha_max': 1.0, 'steps': 100, 'prefer_data_aware_scaling': True}, 'scale_estimation_params': {'subset_size': 64, 'initial_steps': 5, 'scale_steps': 5, 'weight_penalty': -1.0}, 'gptq_params': {'damp_percent': 0.1, 'block_size': 128, 'subset_size': 128}, 'lora_correction_params': {'adapter_rank': 8, 'num_iterations': 3, 'apply_regularization': True, 'subset_size': 128, 'use_int8_adapters': True}, 'lora_adapter_rank': 256, 'backend_params': {}}" />
				<all_layers value="False" />
				<awq value="False" />
				<backup_mode value="int8_asym" />
				<compression_format value="dequantize" />
				<gptq value="False" />
				<group_size value="-1" />
				<ignored_scope value="[]" />
				<lora_correction value="False" />
				<mode value="int8_asym" />
				<ratio value="1.0" />
				<scale_estimation value="False" />
				<sensitivity_metric value="weight_quantization_error" />
			</weight_compression>
		</nncf>
		<optimum>
			<nncf_version value="2.17.0" />
			<optimum_intel_version value="1.26.0.dev0+3fe7559" />
			<optimum_version value="1.27.0" />
			<pytorch_version value="2.8.0" />
			<transformers_version value="4.52.4" />
		</optimum>
		<runtime_options>
			<ACTIVATIONS_SCALE_FACTOR value="8.0" />
		</runtime_options>
	</rt_info>
</net>
